model_sleep_bl.onnx (onnx, 116581 bytes, 17 tensors)

functional_1/time_distributed_2_1/Cast_5/ReadVariableOp:0 f4 [16, 1]
00000000: a59d 73bd 4693 0c3d d7d3 183e 00e5 983e
00000010: dd40 573e 6a07 703e 20c1 b2be a19d c73e
00000020: 7cd5 6ebe d10e 01be 3f99 e83d 624c 113e
00000030: 9c68 61be 71c6 903e a003 f83e 71c8 39be
-0.059476513 0.03432014 0.1492456 0.29862213 0.21020837 0.23440328 -0.34912968 0.3898745
-0.23323625 -0.12603308 0.113573544 0.14189294 -0.22012562 0.282764 0.48440266 -0.18142869

functional_1/time_distributed_1_2/Cast_5/ReadVariableOp:0 f4 [16, 16]
00000000: 72f6 763e b551 a73e e380 a33e 8751 d5bd
00000010: 58a3 313e fa7a 6b3e 9c2b 213e 5781 a4be
00000020: 209c 803d a857 0a3e 0136 373f a4a1 043f
00000030: 036a 033f ebef 2b3e 83b9 3fbe e8c3 cebe
00000040: f2fb 0e3f cac7 db3d 67ff 51be dc8d 0dbe
00000050: 0c1b bfbe 901e 87bd dc98 423c d341 85be
00000060: 7647 01bf 5f89 203f dc1f f7be 33bf d6be
00000070: 85fd 85bf 13f1 433e 3ff5 36be 5492 eebe
00000080: f6c6 94be fe8a 35bd e165 88bf cd3d 44be
00000090: 19b4 87bd 482a 7f3e 40d6 83bd ebb8 883c
000000a0: d1d1 a3be e539 66be 64c2 abbd 1455 b5be
000000b0: 8e51 34be 8fcd 303e 4fb3 bf3d 7283 d73e
000000c0: 4083 e83d 3d04 4cbe 356d 0fbf 2b28 b4be
000000d0: 023a 38be 5f34 56bd 4181 a5be 6c10 02bd
000000e0: 0275 83be d5aa 13bf f4e9 69bf 0d79 013d
000000f0: 6b0a 17bf f299 923e a687 b43c 6e3b c63d
00000100: 87d5 c73e 51e5 dabd a9f2 64be de65 153e
00000110: 8b77 5e3e d1f0 40bf c3a3 e1bc e07d 26be
00000120: 8d80 2d3f d8ed c13e d587 84bf 782c 59be
00000130: fe00 85bf 569a c63d c674 5abe f0b3 b2be
00000140: d8cd 2abe 75bf 143e a77f 3e3d 76c8 c1bd
00000150: 9fea 3bbe 1f96 1f3d 56e6 d4be a991 5f3d
00000160: f4dc d0be 9708 e5bd ec6a 4abe d50c e03d
00000170: 561e 82be 79d8 9c3d 42ad 2c3e a892 703e
00000180: 4801 dc3d 68d0 fb3d 4d57 a4be 7f28 4a3e
00000190: 73f5 8dbd 612a 34be 0870 f2be dbd5 ba3e
000001a0: 7e3d b93e fd8a c53e f8c0 dcb9 b018 cb3d
000001b0: e1df 833e 405f 8a3c 1fca 51be 86df aabe
000001c0: b89a 41bb 460b 843e b366 8ebe b4d3 0bbe
000001d0: eb97 ba3e 7f3c fa3d dbfe dfbe 8d48 803e
000001e0: 05ad f0bd 57dc 773e f05b 28be e61c c93e
000001f0: af87 353d 0e26 4dbe 2bc9 6d3e c846 cb3e
00000200: 464e 04bf d7a4 01be 810d 8f3e 5a55 3e3e
00000210: 3f7e d1bd cda6 81be 1726 883e f075 14bd
00000220: f686 ea39 6f61 8a3f e605 98be 2137 03bf
00000230: 6adb 0a3f 9fca 993e 0538 193b 966e a5be
00000240: cf6e 15be 819b 903e 7929 e83e 9e23 a2be
00000250: beea fdbe 9ece 8f3e bb1e bcbe e599 c8bd
00000260: 6a51 c53d b1bc 01bf 56a6 403b 9ccf bcbd
00000270: 21a7 633e 8a9a bc3e d2ea bebd ce00 b8bd
00000280: 3b4a 173e 3fba 5dbe 6c91 db3e ee23 c9be
00000290: bd80 783e 2e7f d53e 866e e43d 2296 9bbd
000002a0: c761 4d3e 568c 84be dae9 d43e ff8d 953d
000002b0: 20b7 fa3d e310 9fbe 082b 98be fee0 b23e
000002c0: da4d 943d 4a27 a1be 05d0 0a3e ba2e b9be
000002d0: e505 b3be 34ad 1b3b 8496 80be d1c0 453d
000002e0: 4552 8fbe 2b1c 653e 1b94 4b3e 1e19 c5bd
000002f0: 58a1 2e3b ae6a cabe d0b6 a73e ab52 d0be
00000300: 3e78 0c3e 5044 a7be 738f 22bf 52d0 91be
00000310: 2807 06bd a1e8 863d bd19 703e 2542 69be
00000320: 7333 ab3e 8b31 21bd 208e b73e 1446 dfbd
00000330: c4a4 d73e af04 91be d4e0 9f3e b3aa 343c
00000340: f689 cebe ea7a 9b3e 85fa 1d3e 714e a73e
00000350: 8808 9dbe e821 b6bd 295f 043c 1793 88be
00000360: fc35 e43e 9731 87bc f6c4 123f 840f 4a3e
00000370: 7020 793e 6bff a0be d936 0e3d b4ba dbbe
00000380: b579 d4be d115 ca3b 9415 a73d 9b8b 8cbe
00000390: 7fb4 17be c563 f8be 2ffb 673d 5f8b 663e
000003a0: 486a 43be 7a3e d4bd 26ee 9ebe 5d7a 733e
000003b0: be7b bbbe 9291 cb3e afb8 5dbe 3864 71be
000003c0: f1a5 ea3e 0365 da3b 9908 47bf 7180 3d3e
000003d0: e004 4d3d 2d47 babd 657f 873e de9a 483d
000003e0: 2dff 80be 5898 803c 87d3 ed3d e2f2 44be
000003f0: 667d 7fbe 76c0 98bd 08d3 303e 19d1 313e
0.24117449 0.32679525 0.3193427 -0.10415941 0.17347467 0.2299613 0.15739292 -0.32129928
0.062797785 0.1351 0.7156678 0.51809144 0.51333636 0.1679074 -0.18723111 -0.4038384
0.5585319 0.10731466 -0.20507585 -0.13823646 -0.37325323 -0.06597626 0.011877265 -0.26026782
-0.50499666 0.6270961 -0.48266494 -0.41942748 -1.0467993 0.19134931 -0.17866991 -0.46596014
-0.29058045 -0.044322006 -1.0656091 -0.191642 -0.06626148 0.24918473 -0.06437349 0.016689738
-0.31996015 -0.22483023 -0.083866864 -0.35416472 -0.17609236 0.17265914 0.09360372 0.42092472
0.11353159 -0.19923492 -0.5602601 -0.35186896 -0.17990878 -0.05229604 -0.32325175 -0.031753942
-0.25675207 -0.57682544 -0.9137261 0.031609584 -0.5900027 0.28633076 0.022037338 0.09679304
0.39030096 -0.1068827 -0.22358193 0.1458964 0.2172529 -0.75367457 -0.027543908 -0.16258955
0.6777428 0.37876773 -1.0353953 -0.2120837 -1.0390928 0.09697406 -0.21333608 -0.34902906
-0.16680086 0.1452616 0.046508458 -0.09462063 -0.1835122 0.038961526 -0.41581982 0.05458227
-0.40793574 -0.11183279 -0.1976735 0.109399475 -0.2541377 0.076584764 0.16862968 0.23493445
0.10742432 0.1229561 -0.32097855 0.1974201 -0.06931581 -0.17594291 -0.47351098 0.36491284
0.36179727 0.38582602 -0.00042105443 0.09916818 0.25756744 0.016891122 -0.2048726 -0.3337366
-0.0029541682 0.2578985 -0.27812728 -0.13654977 0.3644403 0.1221857 -0.43749127 0.25055352
-0.11751751 0.24205147 -0.16441321 0.3927986 0.04431885 -0.20034048 0.2322127 0.3970244
-0.51681936 -0.12660538 0.2793999 0.18587247 -0.10229158 -0.2532257 0.2659156 -0.036245286
0.00044732512 1.0810984 -0.29692 -0.51255995 0.5424105 0.300374 0.0023379338 -0.32310933
-0.14593051 0.2824364 0.4534414 -0.316678 -0.49593157 0.28087324 -0.36742195 -0.09794978
0.09634669 -0.50678545 0.002939602 -0.09219286 0.22231723 0.36836654 -0.09322132 -0.089845285
0.1477441 -0.21653078 0.42884386 -0.39285225 0.2426786 0.41698593 0.11153893 -0.07596995
0.2005683 -0.25888318 0.41584665 0.07302474 0.122419596 -0.3106757 -0.2972033 0.3493728
0.072414115 -0.31475288 0.13555916 -0.36168462 -0.34965435 0.002375436 -0.25114834 0.048279587
-0.27992454 0.22374026 0.19880717 -0.09623931 0.0026646461 -0.39534515 0.32756662 -0.4068807
0.13717744 -0.32669306 -0.63500136 -0.28479248 -0.03272167 0.06587339 0.23447318 -0.22779138
0.3343769 -0.03935389 0.3585062 -0.10902038 0.42117894 -0.28323886 0.31226218 0.011027026
-0.4033963 0.30367213 0.15427597 0.32677034 -0.3067057 -0.08893186 0.008079329 -0.2667472
0.44572437 -0.016503138 0.5733179 0.19732481 0.2432878 -0.31444868 0.034720276 -0.4291588
-0.41499105 0.0061671515 0.081584126 -0.2745026 -0.14814948 -0.48513618 0.05663603 0.22514103
-0.19083512 -0.10363479 -0.31041068 0.23777147 -0.36617845 0.397595 -0.21652482 -0.23573387
0.45829728 0.0066648736 -0.77747494 0.18506028 0.050053477 -0.09095607 0.26464382 0.048975818
-0.25194684 0.015697643 0.11612611 -0.19233277 -0.2495018 -0.07458584 0.17268002 0.1736492

functional_1/time_distributed_1_2/BiasAdd_2/ReadVariableOp:0 f4 [16]
00000000: 24a3 eebb 7c49 943d ca07 0d3d 3181 febc
00000010: b652 003e 7335 bc3d 8be1 debd df51 133e
00000020: 5995 c3bd bdf3 e7bd fa21 44be 9134 f33d
00000030: 694c 39bc 353e 003e d3fb 113e a1fb 2cbe
-0.0072826315 0.072405785 0.034431256 -0.031067463 0.12531552 0.09189882 -0.10882863 0.143867
-0.0954997 -0.11325786 -0.19153586 0.118752606 -0.0113097215 0.1252373 0.1425622 -0.16892864

functional_1/time_distributed_1/Cast_6/ReadVariableOp:0 f4 [69, 16]
00000000: 189a 09be 724c 493e 2557 7f3e 5720 a8be
00000010: 6a99 72be 22ea 6fbe ab60 f1bd f546 8ebe
00000020: e956 b33c 7bbf e5bd b253 1b3e 049b 87be
00000030: 374f a73c 2bb6 b7bc 46f3 85be 608a e0bd
00000040: 8390 90bd 023a d3be e085 d7bb d67f 533c
00000050: abdb 0fbe bda6 b1bd e0f1 9b3e 0eee 1a3e
00000060: 1bd5 683d 1a5b 7e3e f0b5 8a3d e99f 883d
00000070: 8f96 603e df08 863e 6540 1b3e 2b9a ca3d
00000080: a600 a4be 3fee 21bf 213d ed3e bd7b 373d
00000090: 6ad4 85bf 8961 a4bd d911 85be 3a42 873e
000000a0: 42e3 adbe 0ea3 8ebe df2d 943d b7af bb3e
000000b0: 4275 d3bd 4396 91bd edeb 613e 5427 1cbe
000000c0: 1fb3 7a3e b6e5 513e 0f19 32be dfb5 93be
000000d0: 9525 05bf d207 573e e9de bf3e 566d 68be
000000e0: 2705 8e3e 51f3 18be f54f 42bd 0aeb 15bd
000000f0: 4bab 683c 16b1 dd3e 8f38 203e 3654 b83e
00000100: 8329 aabe f3fd 3b3d 7560 623f 0f05 d5be
00000110: 0cf2 583e 4ee0 e7be aaee 313c 4cf5 8cbe
00000120: c241 3cbf 615c 78bd f048 4c3d b09a 05be
00000130: 3498 8d3f 484f 9abe a6ba d1be 0ed8 973c
00000140: b449 1bbd 21b4 f83e 3733 2f3e f08c 39be
00000150: fa47 9f3e 8c3e 5b3e ddbc 993d 372a 2abc
00000160: d62f 16bc 96f9 f3bb ef9d 94be cc20 993e
00000170: f977 74be 4194 0cbf c6ae 5abc 6793 413e
00000180: ef35 56bd 69fe 473e 58c9 bfbd 600a 80be
00000190: cb49 abbc 4517 58bd 31d5 05bd c1a8 e1bd
000001a0: f9ef 4b3d 2040 87be a083 923e 78c9 31be
000001b0: 8508 6e3b 8c79 733e 5dd4 00be 18f2 53bd
000001c0: 6111 6a3e 2baf 5b3e b560 713e a37b 4e3d
000001d0: e25d eabe b300 efbe 439f eb3c 502f 3c3d
000001e0: 766a e93e b5c6 813e e50f 67be 9828 7d3e
000001f0: a227 2f3e 2065 d73d 8cca 83bd 12c4 a2bd
00000200: e817 383e 1ce5 993e 3b26 4a3e 8e76 b9bd
00000210: 9ab0 ca3e c614 c2bd 8ff3 a7bd 21f8 94bd
00000220: c159 aa3d a012 63bd 517d 1b3c 8a25 8fbe
00000230: ecb3 8f3e 1727 11bd b09f 88be e440 913e
00000240: 15b2 8e3d e549 323e 87d6 aabe 6b0e 5b3d
00000250: 9de7 07bf d08e 443e ad11 17be 9fbd b53e
00000260: 056d 663e e3b6 3cbd 8790 5d3d 0fe1 a9bd
00000270: 5f9f 3dbc 7c92 94bd 1b02 eabd 112b 9fbc
00000280: f099 a33d 16d9 c03e f76e 5ebe 0833 29be
00000290: c50e 1f3f a106 97be f50b c03d cabc ccbe
000002a0: 5ba6 363f fd4d bfba 4238 eb3d d22c 6bbd
000002b0: b1c1 df3e dce2 e23e 2681 483d 4c6b 103e
000002c0: cfc4 a1be 27eb 34be c28a 423e 8247 223e
000002d0: a01d b0bd 1a11 a03c 9628 353e 3119 ae3e
000002e0: 8517 e4be 0cc0 273e 311d 94be 6c1a e6bd
000002f0: 5e29 a5be 3af0 8ebe e5ed 20be 92de d63d
00000300: a472 223f fbbd e23e 08cc dc3d e50c 6abe
00000310: f2cc 923e a068 da3c bda7 973e 91b4 85be
00000320: 8e1d 313f 41fb bf3e 33eb fdbd fee3 34bd
00000330: 42d6 2cbe 1bce 013d da09 513e 79c6 56bf
00000340: 1689 7dbe 577f 69bd e887 913e 8bf4 aa3e
00000350: 5839 59bf 9a63 4b3d 0de3 c2bd e6f1 2e3e
00000360: 6cfe 3ebf 05e5 3e3e 58c7 583b 90d0 223e
00000370: 3099 fa3d a8ce 7bbe c28c 98bd 9b43 b9be
00000380: 3ac9 893e ce46 6e3e 504e 83be 1456 3cbe
00000390: bc46 7f3e 4425 a1bd 4e5e a43e b919 ddbe
000003a0: 07ea 30bd fb9a 653e ca20 2ebe 11db c0be
000003b0: c945 ccbc 4933 2e3f b9cd 583e 99b6 303d
000003c0: 9831 913e 6a7e e23d 347d 87bd e4a4 aa3d
000003d0: 71ac b5be a3a7 923d 7e08 533e 3cc5 5d3e
000003e0: 1fac dabd 45ce b53e afdd d0be cc5d 833e
000003f0: ad06 413e ca2c 07be ad25 833c 99d2 1abb
-0.13437688 0.19658068 0.24935587 -0.32837173 -0.23691335 -0.23429158 -0.11786016 -0.2778851
0.021892028 -0.112181626 0.15168646 -0.26485455 0.020423515 -0.022425732 -0.26162165 -0.10963893
-0.070588134 -0.41255194 -0.0065772384 0.012908896 -0.1404864 -0.08674381 0.30457973 0.15129873
0.05684386 0.2483944 0.06772983 0.066711254 0.21932434 0.26178643 0.15161283 0.098926865
-0.32031745 -0.6325416 0.463357 0.04479574 -1.0455449 -0.08026416 -0.2599018 0.26417714
-0.33962446 -0.27858776 0.07235312 0.36657497 -0.103250995 -0.07108738 0.22062655 -0.15249377
0.24482392 0.20497784 -0.17392372 -0.28849694 -0.5201047 0.20999077 0.37474754 -0.22697958
0.27738306 -0.14936568 -0.047439534 -0.036601104 0.014200996 0.43299168 0.15646575 0.36001748
-0.33234796 0.04589648 0.8842843 -0.41605422 0.21186084 -0.45288318 0.010860125 -0.27530897
-0.7353784 -0.060634974 0.049874246 -0.1304729 1.1062074 -0.30138612 -0.40962714 0.01853564
-0.037912086 0.48574927 0.1710938 -0.1812017 0.311096 0.21410578 0.07506726 -0.010386041
-0.009166678 -0.0074455244 -0.29026744 0.29907835 -0.23873891 -0.5491372 -0.013347333 0.18903886
-0.05229753 0.19530644 -0.09364575 -0.25007915 -0.02090921 -0.052756567 -0.03267402 -0.110185154
0.049789403 -0.2641611 0.28616047 -0.1736201 0.0036320996 0.23776835 -0.1258101 -0.05174455
0.22858192 0.2145354 0.23572047 0.050410878 -0.45774752 -0.4668022 0.028762465 0.04594356
0.45589036 0.25346914 -0.22564657 0.24722517 0.17104962 0.10517335 -0.06435117 -0.07947554
0.1797787 0.3005761 0.19741146 -0.09055816 0.3958786 -0.094766185 -0.08200752 -0.07273889
0.083179004 -0.055437684 0.009490327 -0.27958328 0.28066957 -0.03543767 -0.26684332 0.2836982
0.0696756 0.17411001 -0.33366796 0.053480547 -0.5308779 0.19195104 -0.14752837 0.35496232
0.22502525 -0.046072852 0.05409291 -0.0829488 -0.011573642 -0.07254502 -0.11426183 -0.019429715
0.079883456 0.37665623 -0.21722017 -0.16523373 0.6213191 -0.29497245 0.093772806 -0.39987785
0.7134759 -0.0014595386 0.1148534 -0.05741579 0.43702462 0.44313705 0.04895129 0.1410343
-0.31595466 -0.17667829 0.18998244 0.1584759 -0.085994005 0.019539405 0.17691264 0.34003595
-0.44549194 0.16381854 -0.2892852 -0.11235508 -0.32258123 -0.27917653 -0.1571575 0.10491671
0.6345618 0.4428557 0.107811034 -0.22856481 0.28671986 0.026661217 0.29620162 -0.26114324
0.6918572 0.3749638 -0.12398376 -0.044162743 -0.16878608 0.031690698 0.20413914 -0.83896595
-0.24759325 -0.057006206 0.28424 0.33389696 -0.84853125 0.049655534 -0.09515963 0.17084464
-0.74606967 0.18642052 0.0033077803 0.15899873 0.122362494 -0.24590552 -0.074487224 -0.3618439
0.26911336 0.23269197 -0.25645685 -0.18392211 0.24929327 -0.07868436 0.321032 -0.43183687
-0.043191936 0.22422402 -0.17004696 -0.37667134 -0.02493562 0.68047005 0.21172227 0.04314289
0.2835815 0.11059268 -0.066156775 0.08332232 -0.35483125 0.071608804 0.20608708 0.2165727
-0.10677361 0.35508934 -0.4079413 0.256575 0.18850203 -0.1320068 0.016009176 -0.002362406

functional_1/time_distributed_1/BiasAdd_1/ReadVariableOp:0 f4 [16]
00000000: 4172 2ebc dbe8 8dbd 5a3d 0b3d 861e ad3d
00000010: 42d0 8abd 54ad a8bb fa19 773d 1e6c a83d
00000020: 6130 21bd ea63 853d 8250 08be 5f3a c83d
00000030: c4fd e13c 1653 a93c 26b7 1f3d fb12 6ebd
-0.010647357 -0.06929179 0.033994056 0.084530875 -0.06778003 -0.0051476154 0.060327508 0.08223747
-0.03935278 0.06513198 -0.13311961 0.097767584 0.027586825 0.020669501 0.038993023 -0.05812357

functional_1/bidirectional_1_2/lstm_3_1/lstm_cell_1/add_1/ReadVariableOp/resource:0 f4 [40]
00000000: e8a9 233e 7cdf 3c3e 36ad df3b 1230 b4bc
00000010: e1d4 95bc 0735 7e3d 35a3 6f3d e3c2 4a3e
00000020: d86e 90bd 4492 2eba bed2 773f be1b 893f
00000030: db7d 773f a283 6e3f c735 513f 9475 8b3f
00000040: 092c 8e3f f07a 8c3f 9171 4a3f 7079 893f
00000050: fb05 7cbd 6682 9b3d cdff ddbd a5f0 553d
00000060: 1ac0 7fbb bdb5 033e 25a6 933b c453 8bbd
00000070: ecc3 20bc 9411 c83d 4034 ac3d 7aac 013e
00000080: c370 4c3c deb4 b63e 8621 303a 32a3 b9bc
00000090: 2a03 dbbc 1038 f0bc 25ac 3cbe 8f3d b6bb
0.15982783 0.18444628 0.0068260683 -0.021995578 -0.018289985 0.06206229 0.058505256 0.19800906
-0.07052392 -0.00066593685 0.9680594 1.0711591 0.96676415 0.93169606 0.8172268 1.0895257
1.1107188 1.0975018 0.7907954 1.0740185 -0.06152914 0.07593231 -0.10839806 0.05223145
-0.0039024414 0.12862296 0.00450589 -0.068030864 -0.009812336 0.09768978 0.084084034 0.12663451
0.012478056 0.35684866 0.00067188626 -0.022660825 -0.026734907 -0.029323608 -0.18425043 -0.0055615376

functional_1/bidirectional_1_2/lstm_3_1/lstm_cell_1/Cast_1/ReadVariableOp/resource:0 f4 [10, 40]
00000000: 4662 c2be b2e5 843f c205 a9bd 1399 02bf
00000010: 3bcd cd3d 10eb d0bd dde5 99bc b379 223e
00000020: f9b0 923e 845c 34be 34da 0a3e 2d37 ec3e
00000030: 0ed3 c73d 9271 6c3e 2bb6 323e 7279 fbbd
00000040: 072f 4b3e 9eae 97be 4d4b 633f 151e 8bbe
00000050: af84 873d 295f e33e bd27 fabd 7711 e13e
00000060: 0af8 4f3e 1800 e0be 8178 6d3e ee17 313f
00000070: 6b1a 113d 90c8 c2be bb78 b4bd c18b 0bbf
00000080: d747 a53e 028a 01be 105f 5b3e 9703 2d3d
00000090: a489 c93e 2213 abbe e320 a03e 619c 813d
000000a0: fd59 84bd 6296 933d f50c 693d 92a7 92be
000000b0: 7b3b 12be 0da2 9ebe 0257 ae3e ddc9 d3bd
000000c0: 345b 0ebd 2938 8ebe c0ed 82be 2ca6 2bbd
000000d0: 0dc3 e6bc 99a5 c5be d752 e6be 591d 00be
000000e0: 24ed b13e d612 253e d91a 03be 1557 3bbd
000000f0: 51c6 d33e 0d47 8d3e 4b6d ddbc 7090 1cbe
00000100: b980 983e e3ef b4bd 249b d3bd acaa 983d
00000110: be16 d8be 9936 183d 5ffa 3cbe 0598 0c3e
00000120: e1e4 94bd d993 533d 81fb bbbb 242a f7be
00000130: 3638 80be c0e6 f1bc bb6b f9bd 5711 07be
00000140: 27ed 0b3f 21b0 57bf 30dc b23e 58f1 623f
00000150: 69e4 043f f4eb 1cbe c24f c2be 743c bdbe
00000160: 25ba 7f3f 5c5f ab3d ce61 a5bd 8e88 09be
00000170: 71fe 303e f356 3a3f 6041 89bb 2baa 01bd
00000180: 723a 29be 7721 d5be c6bf 853f 9059 5d3c
00000190: 7f88 95bd 13b7 853e f6ef 88be dea5 5d3d
000001a0: c9cd 46bd a290 243e 088f 343e 8bf7 333f
000001b0: 1fdf 68be 50dc d4be a83c 1c3e 7382 c2be
000001c0: c13f 5ebe 44cc 273f bc8e 703d 4e9c 1dbe
000001d0: e7cf 01be 0f4e a23d 0597 093f 8e27 94bd
000001e0: 9b1d fdbe 7d4b 80bb f303 983e 60b8 153f
000001f0: 762e 89be ca89 2cbf 14db 223e c809 4b3d
00000200: 528e 1bbe b10d 97be 41bb f2be 96aa 113f
00000210: 18ed 96be 7dd0 3bbf 21ed 3fbf 2889 14bf
00000220: aff6 233f a157 65bc 51e7 1abf ae53 30be
00000230: a996 1cbe fbdd 9ebe f5eb 083e 36ae cdbe
00000240: 2913 10be 66f4 c5bd 0c06 b1be 75fc 6fba
00000250: 3890 853e b126 643e c588 ec3d 3bf6 b13e
00000260: c51e 53bf 5298 b33c e37a 46bf db62 9bbd
00000270: 0f9b 53bf deef 02bf 7c77 a9bc eeb2 74bd
00000280: cca8 81be cbb4 ed3d cf17 1b3c ae82 debe
00000290: afa7 1dbd 49d6 7ebe 306f fabe f051 893e
000002a0: ef14 e5be 27ef 573d f143 4bbd d200 5a3f
000002b0: 5999 2f3f 5a45 e1bd 1d44 583f 0fef 9dbe
000002c0: a7a0 dd3c 3fc8 85bd 0b3a 953f 3bb8 f3be
000002d0: 0793 833d 5293 0a3f 4ed1 75bd b115 123e
000002e0: b926 053d 938e 93be 2809 8c3e a7a1 c93e
000002f0: e862 bb3c 3cee a9be 9867 0abe b4e4 8e3e
00000300: f252 85be 7c65 063e a253 37bf a264 403e
00000310: 428f 4dbe ad38 c6bd 2c61 c8be 8ea2 bebe
00000320: 46d7 2f3e e554 193e 4d3d 74be 657f d0be
00000330: 10a4 073e d47f 823e 7bc0 113f 97db 393e
00000340: a774 51be f7f3 9ebe f0f3 8abd 56fe 5dbe
00000350: 7d34 98bc 6108 ddbe e931 b4bd 260d cc3d
00000360: e230 163e 0558 653d 4e95 99be e4b7 fd3d
00000370: 389a 143e 8782 623e c82a d7bd 0c08 09be
00000380: 7644 27bd 7c80 093f 0df1 47be 6e2f b1be
00000390: 58ff c33d f2c8 a63e b5af f83d 4c44 02bd
000003a0: 1243 0dbe aa1f 323e d836 4fbd c39f 883e
000003b0: c26a 0e3e 932b e33d ec00 c9be 50ca 77be
000003c0: 55e6 78be 02f0 dbbe 97a8 01bd 5ade 6b3e
000003d0: b5e6 353e ff09 f03d c04d 6dbe 64bc dbbe
000003e0: 269c d33e 7ed2 05bd 63de 903e 2a95 0fbc
000003f0: 4c70 bc3d b613 313e a3cb 7a3e 7b57 18be
-0.37965602 1.0382597 -0.08253051 -0.5101482 0.1004891 -0.102010846 -0.018786365 0.15866737
0.28650644 -0.17613417 0.135598 0.46135846 0.09757052 0.23090199 0.17452304 -0.12279023
0.19842158 -0.2962541 0.88786775 -0.27171388 0.06617104 0.4440854 -0.12214611 0.43958637
0.20309463 -0.43750072 0.231905 0.6917714 0.035425585 -0.38043642 -0.0881209 -0.5451012
0.32281372 -0.12650302 0.21422982 0.04223975 0.39362824 -0.33413035 0.3127509 0.06328655
-0.064624764 0.072064176 0.056897122 -0.2864347 -0.14280502 -0.3098301 0.34050757 -0.10341237
-0.034754947 -0.27777222 -0.25572014 -0.04190652 -0.02816918 -0.38602903 -0.44985077 -0.12511195
0.34751236 0.16120467 -0.1280321 -0.045737345 0.4136224 0.2759327 -0.027029654 -0.15289474
0.29785708 -0.08834817 -0.10332325 0.07454428 -0.4220485 0.037161443 -0.18454884 0.13729866
-0.07270218 0.05165467 -0.0057367687 -0.48274338 -0.25042886 -0.029528975 -0.12178751 -0.13190208
0.5465874 -0.84253126 0.34933615 0.8864951 0.51911026 -0.15324384 -0.37951475 -0.36960185
0.9989341 0.08367798 -0.080752954 -0.13430998 0.17284562 0.72788924 -0.0041887015 -0.031656425
-0.16526201 -0.41627094 1.044915 0.013510123 -0.07301425 0.26116237 -0.26745576 0.05411326
-0.048536096 0.16070798 0.17632687 0.70299596 -0.22741364 -0.41574335 0.15257514 -0.3799015
-0.21704008 0.6554606 0.058729872 -0.15391657 -0.12676965 0.07925045 0.5374606 -0.07234107
-0.4943665 -0.003915249 0.29690513 0.5848446 -0.2679326 -0.6739775 0.15903884 0.049569875
-0.1519101 -0.29502633 -0.47408488 0.5690092 -0.29477763 -0.73365 -0.74971205 -0.58021784
0.64048284 -0.013997943 -0.6050921 -0.17219421 -0.15291847 -0.31028733 0.1337126 -0.40171975
-0.14069809 -0.09665756 -0.34574926 -0.00091547455 0.26086593 0.22280385 0.11549524 0.3475817
-0.82468826 0.021923218 -0.7753126 -0.075872146 -0.82658476 -0.5114726 -0.020686857 -0.059740953
-0.25324094 0.11606749 0.009466126 -0.43459076 -0.038489994 -0.24886431 -0.48912954 0.26820326
-0.44742534 0.052718308 -0.04962534 0.851575 0.68593365 -0.10999556 0.8447893 -0.3084645
0.027054144 -0.065323345 1.1658338 -0.47601494 0.064245276 0.5413104 -0.06001406 0.14266087
0.032507632 -0.28819713 0.27350736 0.39381143 0.02287431 -0.3318957 -0.1351608 0.27908862
-0.26039845 0.1312465 -0.7161199 0.18788388 -0.2007418 -0.09678779 -0.39136636 -0.37233394
0.17171964 0.14973791 -0.2385151 -0.40722194 0.13246179 0.2548815 0.56934327 0.18150173
-0.20454656 -0.31045505 -0.06784809 -0.21679053 -0.018579716 -0.43170455 -0.08798582 0.09963445
0.14667085 0.055992145 -0.29996723 0.1238859 0.14511955 0.22120105 -0.10506207 -0.13381976
-0.040836774 0.53711677 -0.19525547 -0.34606498 0.09570187 0.32575184 0.121428885 -0.031803414
-0.13795117 0.17394891 -0.050589412 0.2668439 0.13907912 0.110922955 -0.39258516 -0.2419827
-0.24306615 -0.4295655 -0.03165492 0.23034039 0.17763789 0.117206566 -0.2317419 -0.42917168
0.4133007 -0.032671444 0.28294668 -0.008763591 0.092011064 0.17292675 0.24491744 -0.14877121

functional_1/bidirectional_1_2/lstm_3_1/lstm_cell_1/Cast/ReadVariableOp/resource:0 f4 [24, 40]
00000000: 7952 293e ccdb 10bf ac43 33be d88c 5e3e
00000010: 07f4 fe3c ca39 8bbc 0915 ddbe 99c2 92be
00000020: 3dd6 383e cf43 3d3e 0e21 3ebe 7a93 b43b
00000030: 781d f33d 261c 473e 742a c83d 4032 38be
00000040: 2c57 3dbf ff6b babe 4593 d53d 2b94 4d3e
00000050: 5a03 db3d d040 6fbe 2f1c ae3e 6172 7fbe
00000060: 0f31 3e3e c5a9 16bf 3fbf f43e 0f39 ff3e
00000070: ed74 30bd 4d65 99be 4e14 873e fece ccbd
00000080: 65bd 10be e4ae 81be 27b0 dabe 0c39 49bd
00000090: 952e 903d 18a5 cdbd 0621 c83c 3fbd 5ebd
000000a0: e2cb 1f3f 2e99 16bf 06a0 133f 632d 84be
000000b0: 0620 323f 3f32 bc3e 9dd1 0fbe 7152 d6bd
000000c0: c03a b93f 0fcb 69be b55a 75be 0e0e 86be
000000d0: 10c0 353f 3808 eb3e 122f 04be 7283 573f
000000e0: 06f6 033e 9958 c43e 34e4 d13d 715a 9dbe
000000f0: 8e61 48bc b66c f7bd 3415 e73e 8913 a33d
00000100: 3dd3 01be 60ab 8e3e bb01 87bd 06eb 93be
00000110: 5e87 ea3e ee42 4e3d 8597 89be 3b13 cc3d
00000120: c492 ebbe 94ce 12bd 0253 8b3d dc8d 8a3e
00000130: 9cf6 03bd 6a05 afbe 5af4 973f f874 13bf
00000140: fc46 a73f 4c8d 083f 742e 933f a156 fb3f
00000150: 324a 923f 3377 f43e 0d8a c13e 62a1 743e
00000160: cb01 773f 12b4 d8be b879 52bf 0b7a ce3e
00000170: afb8 303f 52ea 47be fbe9 31bf db12 2abd
00000180: 95c9 123f 16c1 cb3c b267 a23b dbcc e6be
00000190: 36df 013f 1b51 523e 1ae4 0fbe a61c 36bf
000001a0: 5113 1a3f e0ee b9bd 39ae 80be 138e b0be
000001b0: 8bf9 643e 1026 ecbe c163 af3e 4f7a 30be
000001c0: 14f6 ac3e b0c4 af3f c3b3 d23e 8c71 25bf
000001d0: 7412 d9be 4723 28bf 3a43 8b3e 6502 1dbf
000001e0: 6d68 34bc 0e94 fb3e 3ddb 71bf c40a 84bf
000001f0: 0c19 67bf 6c88 90bd 5e2c 27bd 751d 503f
00000200: 6716 fcbe b177 d93d 46af d2bd 2768 ac3e
00000210: cb1f 8bbe de12 dbbe 0eeb 803d 88ff 2d3d
00000220: 6dc1 603e 1336 713f fe46 21be 2235 303e
00000230: 4050 b5be 4c99 03bf f477 05bf b2e7 0fbe
00000240: d59e a7be 6651 283f 4a28 1f3e 3620 aabe
00000250: 6a40 0d3f 3e05 673e 819b 2a3f df8d a0be
00000260: 043d 05be 5241 14bf 89b0 88be 3bdb a0be
00000270: 8a48 993e fb27 9e3e 425c 4c3d 6bb6 823e
00000280: c402 f43e ab37 73be 6e09 913e 602c c63e
00000290: 896d 473f 2e2b 90bc 1ecf e8bd 6d7f aebd
000002a0: 3d21 34bd 7668 adbd 792f 443e a081 173f
000002b0: ce3d b83e ac47 3dbe 9fb4 4dbe 8bad 6fbe
000002c0: 2808 343e 02eb 3fbe b762 413e d822 673e
000002d0: c3ae 653e 219d a23e 5311 a33e f4ec 01bf
000002e0: f835 e83e c9ce e13d 6088 0e3e 41fa 2fbd
000002f0: bce1 603e 272b 523e 8ad1 1a3f 38eb e33e
00000300: c069 07be 1cc8 3d3f 7f37 fd3e 84f7 83be
00000310: d7ef d73c fd8f cdbc 4bd4 1fbe 66e4 99be
00000320: a5c0 d33e 3426 13bf 017b c13e c255 99bf
00000330: bec0 183f 550b 923e 4572 483e e651 473e
00000340: 3b61 253f ae96 97be 502a 043f e236 683d
00000350: 04e5 9b3e 2cbf 2d3f e0b2 a8bf b6ce 5f3f
00000360: d27d 9c3d b40f 063e 4534 943c 43d1 8d3e
00000370: 8267 00bf f8c2 4abe fd60 363f 8ac0 f53e
00000380: 2b6d ea3e bbee e03e 3e21 e13a edd3 86bc
00000390: 6dd4 e93d 44ea 083e d0e8 213e c2c1 c7bb
000003a0: ef67 51bf 1fbb 1b3e a022 f4be 061e 99be
000003b0: 685f 143f 04b6 073e babd c93b 4026 61be
000003c0: ccf4 40bf c1e5 92be 4ace a8bd bcf3 86bf
000003d0: 5b3d 5cbc b831 8bbc c8ce 133f 9080 6d3e
000003e0: bb25 b8bf 93fe b93d f18c ad3e 70d5 88be
000003f0: 32f2 2ebe 07c6 273f b9ac ccbe cfba 503e
0.16535367 -0.56585383 -0.17506284 0.21733415 0.03112222 -0.01699533 -0.4318011 -0.2866409
0.18050475 0.18482898 -0.18567297 0.0055107446 0.11870855 0.19444332 0.09773722 -0.17987919
-0.7396114 -0.3641052 0.1042848 0.20076053 0.10693999 -0.23364568 0.34005877 -0.24945976
0.18573402 -0.588528 0.4780216 0.4984822 -0.04308026 -0.299601 0.2638268 -0.10000418
-0.14134748 -0.25328743 -0.4271252 -0.04912667 0.07040135 -0.10041255 0.02442981 -0.054379698
0.62420475 -0.58827484 0.5766605 -0.25815877 0.69580114 0.36757085 -0.14044805 -0.10464943
1.4471054 -0.22831367 -0.23960383 -0.26182598 0.7099619 0.45904708 -0.12908581 0.84184945
0.12886819 0.38348845 0.102486044 -0.30733064 -0.01223029 -0.12081282 0.45133364 0.079627104
-0.12678237 0.27865124 -0.06592127 -0.28890246 0.45806402 0.050356798 -0.26873413 0.099646054
-0.4601041 -0.03584154 0.06802942 0.27061355 -0.032217607 -0.34183818 1.1871445 -0.57600355
1.3068538 0.533406 1.1498551 1.9635812 1.1428893 0.47747192 0.37800637 0.23889688
0.9648711 -0.42324883 -0.8221698 0.40327486 0.69031805 -0.1952298 -0.6949765 -0.04152189
0.5733884 0.024872344 0.004956209 -0.45078167 0.5073122 0.20538752 -0.14051858 -0.71137464
0.60185724 -0.09078765 -0.2513292 -0.34483394 0.22360818 -0.4612279 0.34255794 -0.17234157
0.33781493 1.3731899 0.41152772 -0.64626384 -0.4239689 -0.6567883 0.27199727 -0.6133178
-0.011011225 0.49136394 -0.94475156 -1.0315785 -0.90272593 -0.070572704 -0.040813796 0.8129495
-0.49235842 0.106185324 -0.10287337 0.33673212 -0.27172694 -0.42787832 0.06294833 0.04248002
0.21948786 0.94223136 -0.15749738 0.17207769 -0.35412788 -0.5140579 -0.5213616 -0.14053228
-0.32738367 0.65749204 0.15542713 -0.332277 0.55176413 0.22560593 0.6664353 -0.3135824
-0.13011557 -0.5791217 -0.26697186 -0.3141726 0.29938155 0.30889878 0.04989267 0.255298
0.4765836 -0.23751704 0.28327507 0.3870573 0.7790151 -0.017598715 -0.113676295 -0.08520398
-0.04397701 -0.0846719 0.19158734 0.5918217 0.35984653 -0.18484372 -0.20088433 -0.23406045
0.17581236 -0.18741992 0.18885313 0.22571886 0.22429948 0.31760505 0.31849155 -0.50752187
0.45353675 0.11025769 0.1391921 -0.04296327 0.21961111 0.20524274 0.6047598 0.44515395
-0.13223934 0.7413347 0.49456403 -0.25774777 0.026359482 -0.025093073 -0.15608327 -0.30057067
0.41357914 -0.5748017 0.37789157 -1.1979296 0.596691 0.2852427 0.1957484 0.19464836
0.64601487 -0.29607147 0.51627064 0.056692965 0.30448163 0.6786983 -1.3179588 0.8742479
0.07641186 0.13091928 0.01809133 0.27698717 -0.5015794 -0.19800937 0.7124174 0.47998458
0.45786414 0.43932137 0.0017176045 -0.016458476 0.1141747 0.13370615 0.15811467 -0.006096096
-0.81799215 0.152081 -0.47682667 -0.2990572 0.5795808 0.13253027 0.0061566504 -0.21987247
-0.7537353 -0.28690913 -0.082424715 -1.0543132 -0.013442363 -0.016991481 0.577374 0.23193574
-1.4386514 0.09081759 0.33896592 -0.2672534 -0.17084578 0.6553654 -0.39975527 0.20383762

functional_1/bidirectional_1_2/forward_lstm_2_1/lstm_cell_1/add_1/ReadVariableOp/resource:0 f4 [40]
00000000: b9ff 9e3e b4e6 a03b 0819 c7bd ccba 3cbe
00000010: 8ebf 8b3c 82f0 1c3d 475a 633d ef60 0b3e
00000020: 46f1 94bd 644a c83b f59d 923f ed3a 883f
00000030: ebf2 683f de10 423f 7d64 703f bc25 5f3f
00000040: 4eec 893f 678f 7e3f 0f16 803f 26e7 6d3f
00000050: 5389 f6bd a806 133d 63b6 9b3d 50f9 9f3c
00000060: 00c8 3bbd 5bc7 7a3d ac2e cbbd 5033 4f3e
00000070: bbfb 81bd bfb1 823d 3540 0cbc 3ab7 77bd
00000080: e270 b2bd 1453 52be 5d5f a1bd 5bc6 07be
00000090: 956a 4ebd 0bf9 0bbe 26c8 9a3d 1410 043e
0.31054476 0.0049103145 -0.09721571 -0.18430632 0.017059114 0.038315304 0.055506017 0.13611196
-0.07272582 0.0061123837 1.1454455 1.0642983 0.90995663 0.7580699 0.9390333 0.87166953
1.077524 0.99437565 1.0006732 0.9293083 -0.12037911 0.03589502 0.07603147 0.019528061
-0.04584503 0.061225276 -0.09921011 0.20234418 -0.06346842 0.063815586 -0.00856023 -0.060477473
-0.08712937 -0.20539504 -0.07879517 -0.1325926 -0.050394613 -0.13669221 0.075577065 0.12896758

functional_1/bidirectional_1_2/forward_lstm_2_1/lstm_cell_1/Cast_1/ReadVariableOp/resource:0 f4 [10, 40]
00000000: f355 8fbe 8f01 ab3c 4155 4b3e 0dab 193d
00000010: 3224 c33e e0ad de3d 4da3 513e 434b b0bd
00000020: be18 dd3d f6fa ecbd b6d1 50be 2802 abbd
00000030: 4348 62be 089f 503e 3fe3 a13e e548 7c3e
00000040: 481a 933d 0915 c1be 6cfa 583e a71c f83d
00000050: 0cbc 9b3e 0f56 88be 2012 d4bc cbe2 50bd
00000060: c53a 863d 975a 86bd 7965 a73e b40b 2a3d
00000070: efcc 11bd b363 aa3d 2c1e 0a3e 79b6 8c3e
00000080: 33b9 c3bc e8a1 8abd b6bd e13d fca1 723d
00000090: 4deb ae3e 0093 2b3e 9bda 5dbe 4f94 8dbe
000000a0: efe5 ee3e 9b2d cb3d 373f 0a3d b9eb 3dbe
000000b0: b35a 243e f1c1 b43d 62c7 55be dfe6 58be
000000c0: 3686 01bf 718f 4f3e cb67 9c3e e192 a63e
000000d0: ee94 dabe 7462 cdbe 8d8d 85be b26a f0bd
000000e0: d255 9b3e 8e7a ccbe 31d0 06be f1fb 16bd
000000f0: b15a 64be 652e df3d 789f eebd fb32 513d
00000100: 69ff f2bd d618 d83d 55de 4cbe 155f cfbd
00000110: b032 f93d f119 893d b53b 8b3d 6214 e3bd
00000120: c11d 1dbd 13ad d7be a79e 623d c4aa d8be
00000130: 510e e3bc e8c0 debe 3d9b cabd 840a 80bd
00000140: d2dc 803e 5cc7 bd3e 6e5c 433d 946d 49bf
00000150: 3898 40bd ddc8 94bd 0bf2 bc3e 8892 c93e
00000160: 5e3d 843e 8039 fdbd db8f 993e 2599 073f
00000170: 8005 6abe df49 24bd e13e 8b3b d2c8 32bf
00000180: 044b 043f 8073 853e 5aeb b1be 83a6 1dbd
00000190: 39f5 47be 6e52 0a3f 0053 a7bd d074 4bbe
000001a0: ed17 353e 25f2 e2be 89be 96be 4c3a 4abe
000001b0: c2fc 78bd 6bf7 43be c404 91be cbd2 453e
000001c0: f7d2 2abe 0e1b 0fbf 5aed f03c e1eb d9be
000001d0: 9d39 ea3a 722b 15be 24ea bbbe 7ffb 8fbe
000001e0: a524 bebe 164f 28bf d6f2 70be a31b eebe
000001f0: a3a4 e3bd 76c9 17bf 5f75 e3be a04c 943e
00000200: bc18 673e cef0 2e3f 7c4f f63d d202 eebe
00000210: d808 5abe dc2c b8bd cd30 743e 1d59 8ebe
00000220: 853e c0be 7469 9c3e 4bb6 edbd c77c 97be
00000230: 5bab 4a3e 2979 acbe d7af db3d 6c53 b43d
00000240: f405 7ebe 37bd 063c d9f6 143a 23b7 01bf
00000250: 89ea 353e 2337 9e3e b399 603e 0368 503d
00000260: b526 69bf 33ee 9ebe 89e9 773e dafb 66bf
00000270: e3c9 99bd 299e 043f 46e1 b33d 805e 503f
00000280: 5eba 88be 6937 cabe f4b2 06bf 7f84 593f
00000290: dc85 2b3f 8ae9 75be be66 23bf f1c4 20be
000002a0: 7d68 803d 4c71 993e 9abf 2abe 3d4b 1bbe
000002b0: 2fc1 fa3d 780f 9e3e f674 33be 06fd 36be
000002c0: c22d 62bf c58d 673c a3e9 383e b8b7 f2bd
000002d0: 5a78 043d ba68 ecbe 040a 9dbe ac23 d73d
000002e0: 0770 f93c 445b 8bbe adf8 a63d b74a 273d
000002f0: 5378 45bf d3a0 76be 470b d13d 5328 3c3f
00000300: 9815 2bbf 391f a23f 0a70 ad3e b00a 11bf
00000310: dc40 983e 7197 bc3e 864e 063e 7b11 ed3e
00000320: 00d1 85be dd09 9e3b 5ad6 1fbf 72ce 463e
00000330: cba9 0bbe 845f 933c 4169 a6be 9e58 883e
00000340: 4466 153f 1a6a 263f 8d4c 833e 6559 acbd
00000350: 9107 9bbe c16e c1be db30 cabc e5e7 aabe
00000360: 30d4 17be 057e 6e3c 280d 52be 739f 43be
00000370: c612 b9be 916b cabd 9874 4f3e 4abe 8e3d
00000380: c945 733e bfc2 e5bd 04d0 2b3e ce3c f33e
00000390: fb3f cfbe 4fd1 58bd 8fec 473e 401a e43d
000003a0: e989 86be 1e16 443d 5ad6 bcbe 8b27 8cbc
000003b0: a25e d23d 7995 5abe 9a50 4e3f 20a2 0d3f
000003c0: 6295 13bf 9e1b 13bb 17f5 9fbe 6f09 873e
000003d0: e478 9b3d 2e67 b0bd 3c7d 963d f1e0 9bbe
000003e0: 6f91 703e f0c5 bbbc 6e22 5fbe d880 173a
000003f0: 5d45 783d 6831 ed3e 9592 bf3d d7b5 403e
-0.27995262 0.020874767 0.1985674 0.037516642 0.38113552 0.10873008 0.2047245 -0.08608105
0.10795735 -0.115713045 -0.20392498 -0.08350021 -0.22097878 0.20373166 0.31618688 0.24637182
0.07182747 -0.3771136 0.21189278 0.1211484 0.30416906 -0.26628157 -0.025887549 -0.050997537
0.06554178 -0.065602474 0.32694605 0.041515067 -0.03559583 0.08319797 0.13488072 0.27482966
-0.02389202 -0.067691624 0.110225126 0.05923651 0.34163895 0.16755295 -0.21665423 -0.27652213
0.466598 0.09920808 0.033751693 -0.18546952 0.16050224 0.08826054 -0.2087684 -0.2118182
-0.50595415 0.20269562 0.30547938 0.32533935 -0.4269175 -0.40114176 -0.26084557 -0.117391005
0.30338913 -0.39937252 -0.13165356 -0.036861364 -0.22300221 0.10897521 -0.1165151 0.05107401
-0.11865122 0.10551612 -0.20006688 -0.10125557 0.12167871 0.06694401 0.067984976 -0.11087872
-0.038358454 -0.42124233 0.055327084 -0.42317784 -0.027716788 -0.4350655 -0.098928906 -0.06252006
0.25168473 0.37066162 0.04769557 -0.7868283 -0.047020167 -0.07264874 0.36903414 0.39369607
0.2582807 -0.12364483 0.29992566 0.52968055 -0.2285366 -0.04010951 0.004249439 -0.6983768
0.51676965 0.26064682 -0.34749871 -0.038488876 -0.19527139 0.5403203 -0.08170128 -0.19868779
0.17684908 -0.44325367 -0.29442242 -0.19748801 -0.060787924 -0.19137351 -0.28323948 0.19318692
-0.16682039 -0.5590066 0.029410053 -0.42562774 0.0017869953 -0.14567354 -0.36702073 -0.28121564
-0.37137333 -0.65745676 -0.23530135 -0.4650546 -0.11115386 -0.5929178 -0.44425485 0.2896471
0.22568029 0.6833619 0.12026879 -0.46486527 -0.21292436 -0.08992931 0.23846741 -0.27802363
-0.375477 0.30549204 -0.11607035 -0.29587385 0.1979193 -0.33686188 0.10726898 0.08804974
-0.24806958 0.008223823 0.0005682535 -0.5067007 0.1776525 0.3090144 0.21933632 0.050880443
-0.9107469 -0.31041107 0.2421018 -0.90228045 -0.0750921 0.51803833 0.08783202 0.81394196
-0.26704687 -0.394954 -0.5261681 0.849678 0.6700113 -0.2401487 -0.6382865 -0.15700127
0.062699296 0.2996925 -0.16674653 -0.1516542 0.12243878 0.30871177 -0.17525086 -0.17869958
-0.8835107 0.014132922 0.18057875 -0.11851448 0.03234134 -0.4617365 -0.30671704 0.10504851
0.030448927 -0.27218068 0.081529 0.040842738 -0.77136725 -0.24084787 0.10207229 0.7349903
-0.66829824 1.2665778 0.33874542 -0.5665693 0.29736984 0.3683429 0.13115892 0.463024
-0.26136017 0.004822953 -0.6243645 0.1941469 -0.1363899 0.017989881 -0.32502177 0.2663011
0.5835917 0.6500565 0.2564434 -0.08415488 -0.3027921 -0.3777981 -0.0246815 -0.33380046
-0.14827037 0.014556413 -0.20512831 -0.19103794 -0.36147135 -0.09883798 0.2025932 0.069698885
0.2375709 -0.112187855 0.1677857 0.47507328 -0.404785 -0.052933987 0.19523834 0.11137819
-0.26277092 0.047872655 -0.36882287 -0.0171087 0.10271956 -0.21346082 0.8059174 0.5532551
-0.57649815 -0.002244688 -0.31241676 0.26374385 0.075914174 -0.0861343 0.07348105 -0.30445054
0.23492979 -0.022921532 -0.21790478 0.0005779392 0.060613025 0.46326756 0.0935413 0.18819366

functional_1/bidirectional_1_2/forward_lstm_2_1/lstm_cell_1/Cast/ReadVariableOp/resource:0 f4 [24, 40]
00000000: aa73 3dbe 7ef6 5abe e39d 08be 684e a73e
00000010: 0bc9 093d f606 5dbe d600 8fbe de73 b9be
00000020: ed34 77bd 0cc8 11ba 4c71 66be 635e 9bbd
00000030: 7770 5e3e 0666 c43e ce00 f93d 67aa de3e
00000040: 14cc 06be a74f 113e a16c 533e 9a72 ae3e
00000050: a212 293f 71bf b03c beb1 52be 0227 cf3d
00000060: 0e68 8f3e ad1b e43d 8d14 b63c 711e 86be
00000070: 2f69 533e 2465 ebbd 48d2 bdbd d07d 9a3d
00000080: b883 763e ec4f ec3d 6218 9f3d 6664 f5bc
00000090: 62ea 0d3e 4545 52bd 9aed edbe 3f20 983d
000000a0: 446b bbbd 85df 26bd 4573 8fbe 4d56 053f
000000b0: 68e4 93bf b10a b3be 6a0d d2be 2340 90bc
000000c0: 8a08 30bf 8df9 6a3f 65bc c73e f8ab 0abd
000000d0: 1a43 893e 11a1 d73e 5f18 133e d930 eb3e
000000e0: b32f 56be a8c1 e63e e732 87be cad2 cebd
000000f0: 0c0b a7be 4281 b83c 17dd b3be 640b 6bbf
00000100: 4e48 01bf 8aff c03e e3aa cb3e b681 303f
00000110: eed8 e63d cf93 b0bc a9e9 b43e 70c9 d7be
00000120: fdbf 32be 7ee9 523e d765 d83f 65bb 8bbd
00000130: 63e7 c93b 526a 473e de47 033e ecb6 473e
00000140: dcba 4cbe 39ff d9be f8b7 adbe ffac 5d3d
00000150: 3ae8 813e bb6e 03bf 9130 14bf 4835 cfbe
00000160: 130a 3abe cdcb 053e 3da4 f1be cece d6be
00000170: e281 da3e ad44 9dbe 5615 3b3f 3680 debe
00000180: dbef 38be 3eaf 87bf d02b 113f ad91 393f
00000190: 48a9 ff3e a17e 8dbd 6b48 d63e b5be 2bbf
000001a0: c446 98be 7903 3cbe 1c49 bd3e 9667 67be
000001b0: 7132 b2be 0118 84be 381b 0ebf 7271 4fbe
000001c0: a395 21bf 97e7 67bf 4dac 5bbf e606 3a3d
000001d0: 91a8 0abe 1793 fa3e 6429 1abf 91b9 05bf
000001e0: 9cef fc3e 084e 6abe d8fe dcbe fc65 53bd
000001f0: aaa3 24bf e43d 3c3e 6230 073e b3b9 28bf
00000200: 29ab d1be ced5 88bf e718 1c3f c1b3 d73e
00000210: ed04 843e f312 733f 2fbc 8dbe 5cf4 5ebe
00000220: 00eb 9f3e b613 94bd b88a 613c fec9 03be
00000230: 2dc8 bebe e406 903e 83ff 6fbe 4914 9ebd
00000240: 170c c2bc 57fd 54be d247 b6be a7ba 8abe
00000250: 0431 b33d c39d 3f3c 5a74 98bd 2f5f 9fbe
00000260: 8372 5abe 6050 ad3e 2271 01bf 9ecb 14be
00000270: bda7 993e 897e 1abf 69b8 f2bd b278 de3e
00000280: 1e33 7d3c 836c 233e a55a 8fbe 55c2 07bd
00000290: 87d5 553e 49bd c33d dda5 86bb 3c16 9e3e
000002a0: e2be debe c292 c13e ef24 413e abd9 7fbe
000002b0: 13d0 6cbe a28a d13e f1cd 1d3f 727a f03e
000002c0: 7023 f9bd 0de0 803d 47a6 4d3b dadc 843e
000002d0: 4fc6 013f 4436 7ebd 4432 023c 0c09 57bd
000002e0: a5c9 933e fdfb 093f 3a62 7b3e 3962 80bd
000002f0: 6444 d6be 4bf8 a33e 123f 163e 07e3 a0be
00000300: 6f5a 3abe 884a fc3e cfb1 f2be 2fd8 f83d
00000310: 3410 94be d1f6 3bbe d97c 64be 47d0 a8bd
00000320: 372d 6e3e 7d6e de3e f445 e4be b18a 44bf
00000330: c675 73bf bf6f d9be 45dc 8bbe b250 943d
00000340: 74b2 9f3e f082 57be 8280 163f e44c 033f
00000350: 316d c13e b650 19be ff39 49bd f6a9 2abe
00000360: e250 5c3d 9dde ea3e f3a4 c4be d185 4f3d
00000370: a615 fe3d ff6f 203f a4cc 0d3d f50b 79be
00000380: ede9 68be bcde 00be f997 193e 0b07 9c3f
00000390: 03d6 873d b261 a43e 95c3 5cbe 4075 26be
000003a0: 5c66 84bd 24eb 0bbf efa3 be3d 9a68 8fbe
000003b0: 228c 0dbd 17f8 e53e 3205 a13e 226d be3e
000003c0: 949a 543e f7ae 87be 601c 91bd 2fe8 0bbf
000003d0: 4f4f 54bf 5d58 48bf 866d 863e 803d 8bbf
000003e0: 4ede a73d e57e 2bbe 82d8 443f 9469 e4bd
000003f0: 502e 65bf 10b9 29bf af56 07bf b767 f3be
-0.18501154 -0.21383092 -0.13341479 0.32677007 0.033638995 -0.21584687 -0.27930325 -0.36221212
-0.06035321 -0.00055611203 -0.22504157 -0.07586362 0.2172259 0.38359088 0.121583566 0.43489382
-0.13163787 0.14190541 0.20646907 0.3407181 0.66044056 0.021575661 -0.20575616 0.10114862
0.28009075 0.11138091 0.022226596 -0.261951 0.20645593 -0.114939004 -0.092686236 0.07543528
0.24073684 0.115386814 0.077683225 -0.0299551 0.13858941 -0.05133559 -0.46470338 0.074280255
-0.09151319 -0.04074051 -0.2801763 0.5208481 -1.1554079 -0.34969094 -0.4102586 -0.017608708
-0.6876303 0.91787034 0.3901092 -0.03385541 0.26809007 0.4211507 0.14364766 0.45935705
-0.20916633 0.45069623 -0.26406023 -0.100987986 -0.32625616 0.022522572 -0.35129616 -0.91814256
-0.50500953 0.3769496 0.39778814 0.68947923 0.11271845 -0.021554856 0.3533452 -0.42145872
-0.1745605 0.20596883 1.6906079 -0.06822852 0.0061616166 0.19474152 0.12820384 0.19503373
-0.19993156 -0.42577532 -0.3392942 0.05412006 0.25372487 -0.51340836 -0.57886606 -0.40470338
-0.18167906 0.13066025 -0.47195616 -0.41954654 0.42677218 -0.30716458 0.7307943 -0.43457192
-0.18060248 -1.0600355 0.5670748 0.7248791 0.4993384 -0.06908918 0.41852126 -0.6708787
-0.2974149 -0.183607 0.3696984 -0.22598109 -0.3480411 -0.25799564 -0.5551028 -0.2025812
-0.6311895 -0.90587753 -0.85809785 0.045416735 -0.13540865 0.48940346 -0.6021941 -0.52236277
0.49401557 -0.22881329 -0.4316318 -0.05161093 -0.6431223 0.18382984 0.1320205 -0.65908355
-0.40950897 -1.0690248 0.609755 0.4212933 0.25785008 0.9495079 -0.27682635 -0.21772903
0.31233978 -0.07230322 0.013765983 -0.12870023 -0.37262097 0.28130257 -0.23437314 -0.07718713
-0.023687406 -0.20799766 -0.3560167 -0.2709553 0.08749583 0.011695328 -0.07444067 -0.31127307
-0.21332745 0.33850384 -0.5056325 -0.14530799 0.30010787 -0.6034933 -0.1185158 0.43451458
0.015454082 0.15959363 -0.27998844 -0.033144314 0.20882235 0.09557588 -0.004109128 0.30876338
-0.43505007 0.3780728 0.18861745 -0.24985377 -0.23126249 0.4092608 0.61642367 0.46968418
-0.12164962 0.06292734 0.0031379627 0.25949746 0.5069322 -0.06206347 0.007946555 -0.052498862
0.2886478 0.5390013 0.24549189 -0.062687345 -0.41849053 0.3202537 0.14672497 -0.31423208
-0.1819856 0.49275613 -0.47401282 0.12150609 -0.28918612 -0.18355872 -0.2231325 -0.08242851
0.23259436 0.4344367 -0.4458462 -0.76774126 -0.95101583 -0.42468068 -0.2731649 0.07241954
0.31190836 -0.21046042 0.5878984 0.512892 0.3777862 -0.14972195 -0.049127575 -0.16666397
0.053788073 0.45872965 -0.38407096 0.050664727 0.12406473 0.6267089 0.03461899 -0.24320967
-0.22745486 -0.12584966 0.14999379 1.2189649 0.06632616 0.32105786 -0.21558984 -0.16255665
-0.06464836 -0.5465567 0.093086116 -0.28009492 -0.03455747 0.4491584 0.31449276 0.37192637
0.20762092 -0.26500675 -0.0708549 -0.5465116 -0.82933515 -0.7825983 0.26255435 -1.0878143
0.08196698 -0.16747625 0.76892865 -0.1115295 -0.8952379 -0.6629801 -0.52866644 -0.47540066

functional_1/bidirectional_1/lstm_1_1/lstm_cell_1/add_1/ReadVariableOp/resource:0 f4 [48]
00000000: 496a 7abe e5be 10be ff6e ec39 753b f33d
00000010: 26f1 cabd 110a c0bd bebd bd3c 84b4 50bd
00000020: 422b c2be 9914 eabd e2ec d4be eeb4 883e
00000030: 5074 533f 6b64 673f 3d25 8b3f ec94 9a3f
00000040: 39b8 723f 8e5f 583f 7e45 6d3f e668 933f
00000050: 863e 563f 8ee9 623f 8848 5f3f 7202 893f
00000060: 5fcc 4b3c 2876 283c ee8e 7ebc 0742 4abe
00000070: 2ff6 513d 27be 01bd 459e 03be 838b 5ebd
00000080: ff8a 09bd 2d44 a2bc 3603 fa3d 3632 70be
00000090: 5e23 adbd f37b 213e dd21 8e3e 9e4a 283d
000000a0: 6dbc 003e 8824 343d f298 ce3d b504 23be
000000b0: 32b2 c93d 1ce0 a53c 65df 9b3d 574d 9a3e
-0.24454607 -0.1413532 0.00045096126 0.11876575 -0.09909277 -0.0937692 0.023161765 -0.050953403
-0.37923628 -0.1142971 -0.41586977 0.26700538 0.82599354 0.903876 1.0870739 1.2076697
0.9481235 0.84520805 0.9268416 1.1516387 0.83689153 0.88637626 0.8722005 1.0703871
0.012438863 0.010282077 -0.015537007 -0.1975175 0.05126017 -0.031675484 -0.12853344 -0.054332267
-0.033579823 -0.0198079 0.12207644 -0.23456654 -0.084540114 0.15769939 0.2776021 0.041086785
0.12571879 0.04398015 0.10087766 -0.15919764 0.09848441 0.020248465 0.076109685 0.3013713

functional_1/bidirectional_1/lstm_1_1/lstm_cell_1/Cast_1/ReadVariableOp/resource:0 f4 [12, 48]
00000000: 5257 913f a9f9 94be e5d5 c53c a89e f53d
00000010: 1e2c 4a3e 32a0 ad3e 5c4f a73d 9a37 213f
00000020: 1393 1a3e 8129 07bf 310c 453c 2dff ef3e
00000030: f9eb b73e 1bb0 853c c729 80bd d5b2 043e
00000040: c11f c7be 3fd2 89bd 71f1 abbc 3f66 ac3e
00000050: b71b eabe d73e d2be 5395 79bf 6964 883d
00000060: 7996 f83c 1b1b 49be 36eb 76be 325c 893d
00000070: a2f2 1f3d f5ae 82be fee6 05be e4e6 c93d
00000080: 04c4 0bbe d540 2cbe b5c4 2ebe 6edc 3f3b
00000090: 8f3f 833d 6b4f 313f d460 8fbe abe5 00be
000000a0: e147 9a3e 6c7d 59bf 4226 c63d c7b6 de3e
000000b0: e3c3 123f 6c91 7f3e 9b0b 023f 895d 12bc
000000c0: 4218 553f c00c 95bf e036 3c3f bed4 fabe
000000d0: d00d 20bf 96f3 4cbe 2e6d c9bc 9ac6 863d
000000e0: ec67 20bf b425 853e 3d19 aabe 40ed 7abc
000000f0: 104e a5bc 4fda 3fbe 7b69 de3c bd94 8bbd
00000100: 60ae 8abd c1f0 a6be 1197 70be 276f a13e
00000110: a0bb 883e dc4a 01be 2b76 88be 53d3 1f3d
00000120: 6e99 e93d 29b1 8abe c217 6dbe c2ec 8e3e
00000130: 3cd3 c0be f7da a33e 273e 2b3e 32f5 813d
00000140: f2b1 503e 6512 933d 8bf3 313e 2893 47be
00000150: 595e 0f3f 3136 0e3e 7908 ca3e 51ae cbbd
00000160: 7b5a acbd a677 a73e 9d75 a33e 14de e7be
00000170: 8465 61be 2893 b23e c3ee fe3d 1b70 f5be
00000180: cedc 323e 6783 f1bd c38c 0c3f a535 963e
00000190: fa98 56bf f3f9 913d 8223 243d a228 5cbe
000001a0: a62f e03d 41d8 c2be dd18 b0be f443 22be
000001b0: 28b7 873f fa3b 433f 5d19 b33e f345 073f
000001c0: 1609 a43f 21bc 4a3f c1eb 113c 837a f6be
000001d0: a51d 5d3f 7b29 9f3e 479e 5c3f 50d7 973f
000001e0: 2ba1 4fbe 590a 40be 3b6d d9be c2e3 aebe
000001f0: 5873 30bd 6ec1 b2bc 67a6 1b3e 9d47 1d3e
00000200: 561d dc3d 24e6 16be 5e35 79be 5500 743e
00000210: b16e 233f c42a b8be 640d 8dbe 6074 35bf
00000220: 0619 9e3f ccd2 003d e3f8 d2be ca28 7e3f
00000230: a1db ad3e 763b a43e b54d 21be 071d cebf
00000240: 67d7 933e 7263 dd3d 9bf3 963e 1573 0cbe
00000250: 90d2 9f3d 50e6 4abd 8566 c83d 9099 fb3e
00000260: 5b11 ba3e 1d72 8e3c fdd1 a93d 1621 20be
00000270: 0c9c cc3e 2499 323e deae 65ba 7997 86be
00000280: d5bb a83e 2180 743e 96de 9d3d 72cb 0bbd
00000290: d3d2 f93d 57b0 2c3e d581 cc3c 7b96 9e3e
000002a0: d455 a73e f5f7 f5bd b222 4ebe f875 023e
000002b0: f686 e1be 408d 4bbd 82b6 b03e 5cdc b4bd
000002c0: c2cc 573e b68d e4bd 8fda 6dbe 419b 693e
000002d0: f5c3 443e de1d 0ebf 51ad a9be 268e 94bb
000002e0: 5120 01bd ff6c b33d 6dbc 34be 7f31 173e
000002f0: b54d d23d 6689 163e cb7d 1f3e 99e0 c3be
00000300: afbc c23e e99e 14bf 099a b63e 7aea eb3e
00000310: 838d 723e 4268 123d 692f 9c3e 4cf3 04be
00000320: f257 c5be cecb d5be c1ba 2f3f 9546 f2be
00000330: e903 983e e995 7cbf 4f65 b7be a939 d43e
00000340: 4a15 02bf 4d4a bf3e 029f e53d a25f 68be
00000350: bb58 10bf 78e7 70be 7597 aabe a9d2 74bf
00000360: d2c1 123e 9a62 4cbe 4a2c 7fbd cccb 1abf
00000370: d5bb baba 053a 57be e9a4 1ebf 2ecb 80be
00000380: 2cbb 8ebe 3e3d 0fbe 0489 2a3c a1b9 053d
00000390: 66dc 2b3f 9ef7 87be 81b3 42bf 6203 b13d
000003a0: fae0 04bf ec38 c43e 85bb bbbe 49ac a73e
000003b0: 18dc b7be 0a8e 74be 80d8 a7be 9ee6 41bf
000003c0: 9fda 233f 2f93 6cbe 567b 84bd bd3e e13d
000003d0: b8e8 5dbf 920e 63be 3b33 6d3e f795 9c3e
000003e0: 7b90 d1bd 304c 293f a187 103f 0156 233d
000003f0: b205 833e e3a5 f63d 3ec7 b2be 8aaf 093a
1.1354773 -0.29096726 0.024149844 0.11993152 0.19743392 0.33911282 0.081694335 0.62975466
0.15095167 -0.52797705 0.012026832 0.4687437 0.3592222 0.016319325 -0.062579684 0.12958844
-0.38891414 -0.067295544 -0.020989152 0.33671758 -0.4572427 -0.41063568 -0.97493476 0.06659777
0.030345188 -0.19639246 -0.24113163 0.06707038 0.039049752 -0.25524107 -0.13076398 0.09858492
-0.13648993 -0.16821606 -0.17067225 0.0029275673 0.06408607 0.6926181 -0.28003561 -0.12587611
0.30132964 -0.84957004 0.09675266 0.43498823 0.5733015 0.24957818 0.5079896 -0.008933433
0.8324014 -1.1644516 0.7352123 -0.48990434 -0.62521076 -0.20014796 -0.024588194 0.06580849
-0.6265857 0.26005328 -0.3322238 -0.015315354 -0.020178825 -0.18735622 0.027149906 -0.06815479
-0.06771541 -0.32605556 -0.23495127 0.31530115 0.26705647 -0.12626213 -0.26652655 0.039019894
0.114062175 -0.27088287 -0.23153594 0.27915007 -0.3766116 0.32002994 0.16722928 0.063455954
0.20380381 0.07181243 0.1737806 -0.1948973 0.5600334 0.1388786 0.3945959 -0.099453576
-0.08415695 0.32708472 0.3192567 -0.4528662 -0.22011381 0.34877896 0.12447884 -0.47937092
0.17467043 -0.11792641 0.54902285 0.29337803 -0.83827174 0.07127752 0.040072925 -0.21499875
0.10946588 -0.38055614 -0.3439397 -0.15846235 1.060277 0.7626339 0.34980288 0.5284111
1.2815273 0.7919331 0.008906306 -0.48140344 0.8637336 0.31086335 0.8617901 1.1862583
-0.20276324 -0.18753947 -0.4246615 -0.3415814 -0.04307875 -0.02182075 0.15200196 0.1535935
0.10747783 -0.14736229 -0.24336764 0.23828252 0.63840777 -0.35970128 -0.2754928 -0.708807
1.2351387 0.03145103 -0.4120551 0.9928099 0.33956626 0.32076615 -0.15752299 -1.6102608
0.28875276 0.10809983 0.2948273 -0.13715775 0.078038335 -0.04953605 0.09785179 0.49140596
0.36341366 0.017388398 0.08292005 -0.15637621 0.39962804 0.17441231 -0.0008761714 -0.2628744
0.32955804 0.23877002 0.077084705 -0.034129567 0.12198415 0.16864143 0.024964252 0.30974182
0.3268267 -0.12010185 -0.20130423 0.12740314 -0.4404828 -0.049695253 0.34514242 -0.08831093
0.21074203 -0.11159842 -0.23227905 0.22813131 0.19215377 -0.55514324 -0.33140042 -0.004533547
-0.03152496 0.08761024 -0.17650004 0.14764975 0.10268728 0.14700851 0.1557533 -0.38257292
0.3803458 -0.5805498 0.35664394 0.4607733 0.23686795 0.03574396 0.3050492 -0.12983435
-0.3854366 -0.41757053 0.6864434 -0.47319475 0.29690483 -0.98666245 -0.3581948 0.4145024
-0.50813735 0.37361374 0.11211969 -0.22692731 -0.5638539 -0.23525798 -0.33318678 -0.9563394
0.14331749 -0.19959489 -0.062298097 -0.6046722 -0.0014246652 -0.21018226 -0.6197038 -0.25155014
-0.27877176 -0.13988206 0.010408644 0.032647733 0.67133176 -0.26556104 -0.7605515 0.08643223
-0.51905787 0.38324678 -0.36666504 0.3274863 -0.35910106 -0.23882309 -0.32782364 -0.7574252
0.64005464 -0.23103021 -0.06468837 0.109982945 -0.86683226 -0.22173527 0.23164074 0.30583164
-0.102326356 0.6613188 0.56456953 0.03987694 0.25590283 0.12043359 -0.34917635 0.00052522926
