wwwroot/model_sleep_4LSTM_acc.onnx (onnx, 49858 bytes, 11 tensors)

model_2/time_distributed_5/dense_7/MatMul/ReadVariableOp:0 f4 [16, 16]
000000 0b 03 37 3e 4a 57 8e bc 96 ac 7b 3d 49 a1 c2 3e
       0.17872255 -0.017375607 0.061443888 0.38013676
000010 dc fd 9d 3d 08 e2 8b 3e df 8b df 3e ca fd 64 3c
       0.077144355 0.27320886 0.436614 0.013976524
000020 eb 70 a1 be 10 8d be be 28 65 09 3e c9 19 b1 3e
       -0.31531462 -0.37216997 0.13417494 0.34589985
000030 ba aa 0c bf c4 58 fd bd 07 8b f9 3d cf 5c 93 3b
       -0.5494801 -0.12370446 0.121847205 0.0044971476
000040 68 d0 e5 3d 79 2c f6 be ce e3 f8 be 89 64 81 3b
       0.11221391 -0.48080805 -0.486113 0.0039487523
000050 53 3b a9 3e 5b 1c c0 3e 08 67 af be f1 c9 c4 bf
       0.33053073 0.37521634 -0.34258294 -1.5374128
000060 d4 55 ee 3e bd a8 b8 3e 45 03 fa be 5b bc ed bc
       0.46549857 0.36066237 -0.4883062 -0.029020479
000070 06 37 d6 be 5c b4 1b be 11 0e 57 3e 7b 8e 8a be
       -0.41838855 -0.1520552 0.2100146 -0.2706183
000080 9b fc 15 3e eb 19 d8 be ef 34 df be ec c2 56 be
       0.14647143 -0.42207274 -0.43595073 -0.20972794
000090 4a 62 ec 3d 57 c4 12 3e 90 80 93 3e 73 d9 66 bf
       0.11542185 0.1433271 0.28809023 -0.9017555
0000a0 34 f0 c5 bd 96 26 30 be 6c 26 08 3e c1 bd d4 3e
       -0.09664956 -0.1720222 0.13295907 0.4155102
0000b0 fc 85 cf 3e 41 a8 60 3e 64 29 81 bf ad 01 86 bd
       0.4053191 0.21939184 -1.0090756 -0.065432884
0000c0 10 96 36 3e 75 57 bc 3e bd c4 3d 3e 6b 62 49 3d
       0.17830682 0.36785474 0.18532081 0.049166124
0000d0 c8 c7 ac 3e 09 4c 40 be c5 3d 91 bd 7e 0a c8 be
       0.3374617 -0.18779005 -0.0709186 -0.39070505
0000e0 17 7b bf bd ca 28 f4 be 74 4e b4 be 55 a3 3b bd
       -0.093496494 -0.4768737 -0.35216105 -0.045810062
0000f0 84 9b e8 be 73 65 17 be fb c8 9a be 2c e7 12 3e
       -0.4543115 -0.14784794 -0.3023146 0.14345998
000100 f5 f6 86 be 19 48 91 be 45 d4 77 be c4 ea 54 bd
       -0.26360288 -0.2837532 -0.24202068 -0.051981702
000110 fc e8 85 be 13 44 e7 be 6c f0 4b be db 96 24 3e
       -0.26154315 -0.45169124 -0.19915932 0.16073172
000120 79 9b 02 be 74 d3 3c bd 4f 6d f1 3c 90 c3 17 be
       -0.1275462 -0.046100095 0.029471068 -0.14820695
000130 f2 41 b3 be 05 d9 9d be 7e dc 48 3f fa c7 89 be
       -0.3501125 -0.30829635 0.78461444 -0.26910383
000140 1f 65 5e bd 54 f6 9a bd b0 77 c4 3d d4 92 52 bc
       -0.054295655 -0.075665146 0.09593141 -0.012852389
000150 d0 f2 d3 be 8b 0b a4 3e a0 73 95 3e bc e4 3f bd
       -0.4139619 0.32040057 0.29189777 -0.046848997
000160 d4 bb 3f 3e 06 d2 21 3e 3f 6d f7 3d 1a 54 cb 3c
       0.18723994 0.15802774 0.12081384 0.024820376
000170 19 e3 80 be 62 4f 53 be 53 cd 9c 3d 60 a8 72 3e
       -0.25173262 -0.20635751 0.0765635 0.23697042
000180 e1 c0 10 be 59 12 9c 3d eb 9b c6 3e 5b 29 be be
       -0.14136077 0.07620687 0.3879083 -0.37140927
000190 04 a1 8b be b3 41 93 be 22 6b ca 3e 77 74 5c 3e
       -0.27271283 -0.28761062 0.3953486 0.21528803
0001a0 bf d6 b6 bd 0a 77 18 be f0 2a c0 be f1 a4 a6 be
       -0.08927678 -0.1488916 -0.3753276 -0.32547715
0001b0 e2 10 8e be 7c 98 80 be 29 2b 9a 3e 8d cf 52 bd
       -0.27747256 -0.25116336 0.30111054 -0.051467467
0001c0 0c 57 b8 3e 31 c5 88 3e aa 93 e1 be 29 e4 16 3e
       0.36003911 0.26712945 -0.4405797 0.14735474
0001d0 a8 56 dd 3e 5a 64 ca 3e bd fa 5d be bf 33 68 3d
       0.43230176 0.39529687 -0.2167768 0.056689974
0001e0 ac 42 9f be f9 75 1d be 63 52 ce be ec 6f a8 3d
       -0.31105554 -0.15377034 -0.4029723 0.082244724
0001f0 34 0f ef be ee b0 a1 be 94 6c 6b be 9e 94 a9 be
       -0.46691287 -0.315803 -0.22990638 -0.33121198
000200 06 80 01 be b7 08 be be d9 a8 83 bc 94 ec a4 be
       -0.12646493 -0.37116024 -0.016071724 -0.32211745
000210 4a e3 bb 3e 94 92 08 be 9c 39 97 be 18 8a d0 3d
       0.36696845 -0.13337165 -0.2953614 0.10182589
000220 fe c3 80 be df 91 20 bf 75 d3 65 be fe 76 ab be
       -0.2514953 -0.6272258 -0.22443946 -0.3348922
000230 04 ab 9a 3d d0 ae 99 be eb f9 90 be ed c8 04 bf
       0.0755215 -0.30016184 -0.28315672 -0.5186909
000240 f8 f8 a7 3d 5a b9 46 be 31 c8 32 be bc 31 10 be
       0.08201784 -0.19406644 -0.1745918 -0.14081472
000250 23 df cd 3d fd ff 9d 3e 75 b2 0a bf 32 4e c4 3e
       0.100523256 0.30859366 -0.54178554 0.38340908
000260 32 43 b0 3e c0 17 f9 3e 0d aa c6 be 4d c4 14 bd
       0.34426266 0.48650932 -0.38801613 -0.03632002
000270 9f 79 00 bf 08 dd 71 be 38 46 de be 42 d9 fe 3d
       -0.5018558 -0.23619473 -0.43412948 0.124437824
000280 4d ab 3f be b5 b9 f5 3e 92 cd 16 3e 17 17 1c be
       -0.1871769 0.47993246 0.14726856 -0.15243183
000290 99 b4 01 bf 8e d0 fe be 43 a4 01 3f f7 8b 9e 3e
       -0.50666195 -0.4976849 0.5064127 0.3096616
0002a0 ae 64 a2 be c7 dd 2e 3f 58 46 8e 3e cf 14 74 3d
       -0.31717438 0.68307155 0.27788043 0.059590157
0002b0 33 a8 32 3f 2f c4 d8 3c 51 5a 00 bf 29 94 46 3e
       0.697879 0.026460735 -0.5013781 0.19392456
0002c0 09 ca 2e 3e 82 49 87 3c c5 2e b4 be d1 63 b1 3e
       0.17069258 0.016514543 -0.35191932 0.34646466
0002d0 93 c3 a6 3e 44 c7 20 3c 7d 35 92 bd 60 4e 46 bd
       0.32571086 0.009813134 -0.07139108 -0.048414588
0002e0 86 5a ca be 06 b9 99 3e 29 87 ce be b7 e3 a5 be
       -0.3952219 0.30023974 -0.40337494 -0.32400295
0002f0 35 a6 65 3c f1 d6 96 bc 2c 4d c3 bd 8e fa 08 bf
       0.014016678 -0.018413039 -0.09536204 -0.53507316
000300 c3 41 c2 be fe e4 41 bf a2 f6 f5 be 4d 6b 58 be
       -0.37940797 -0.7574004 -0.48039728 -0.21134682
000310 fb 07 84 be 35 ba b1 be 6d fd 8a bd d2 80 1c bc
       -0.2578734 -0.34712377 -0.067866184 -0.0095521975
000320 46 a0 58 3e 83 41 02 3d 10 d0 8f be 78 d5 92 3e
       0.2115489 0.031800758 -0.28088427 0.2867849
000330 76 f3 36 3d 85 ed ab be 5f c2 2f bf fa f0 fb be
       0.044665776 -0.3357965 -0.6865596 -0.49207288
000340 fb 70 a3 3e a7 28 99 be 2d f7 3b be 0e 00 b6 3d
       0.31922135 -0.29913828 -0.18356009 0.08886729
000350 2b f7 cc 3e 87 e0 0e 3e 26 ce 13 3e 9e 72 14 3e
       0.40032324 0.13952838 0.14434108 0.14496848
000360 1d 9c 50 bf 18 c7 ca bc 80 9e 36 be 59 fa 4b 3e
       -0.8148821 -0.024753138 -0.178339 0.19919719
000370 49 43 16 3e 7a e2 89 3e 9e 8c 57 3e 79 dc 61 be
       0.14674105 0.269306 0.21049735 -0.2205676
000380 0f 81 9d be 7a f2 9f 3d 9e 13 90 be d5 19 63 be
       -0.30762526 0.078099206 -0.28139967 -0.22177823
000390 6a e0 f8 bd fe 82 ad 3d 1e e2 1a 3e eb 5b c3 3e
       -0.121521786 0.084722504 0.1512532 0.38156065
0003a0 f5 51 1a 39 37 9f 15 3e 45 b4 ce 3d 75 fa 73 be
       0.00014717116 0.14611517 0.100929774 -0.2382601
0003b0 9f da d8 be 58 e0 1a 3d ca f8 19 bf 04 08 a9 be
       -0.42354295 0.037811607 -0.60145247 -0.33013928
0003c0 a0 37 f9 bd a1 6d e7 3b 66 47 8f 3e 3b 49 81 3e
       -0.12168813 0.0070626293 0.2798416 0.25251183
0003d0 b9 f8 af 3e 8f ca 7c 3e ee 77 3c bf 8d e9 33 be
       0.34369448 0.24686645 -0.736205 -0.17569561
0003e0 2d bc b8 be aa 29 84 3c d3 28 bd 3d ea 26 33 be
       -0.36081067 0.016133148 0.09236302 -0.17495313
0003f0 ce e5 f1 be d9 c2 e7 3d 86 e3 68 bd e8 2c 4e 3d
       -0.4724564 0.11316461 -0.05685761 0.050335795

model_2/time_distributed_5/dense_7/BiasAdd/ReadVariableOp:0 f4 [16]
000000 a1 56 15 be 4c 73 bd bb 51 2b 15 be 5a c8 19 3e
       -0.14583828 -0.0057815667 -0.14567305 0.15017834
000010 c9 6e 1c 3e 25 9c 0c be 7a f0 73 3e 2f 42 24 bc
       0.15276636 -0.1373144 0.23822203 -0.010025545
000020 c1 ee 43 bc 8a 5a c1 3d 0c 7b 29 be 8c 90 26 3e
       -0.011958779 0.09441097 -0.16550845 0.16266078
000030 18 c8 ec bd 41 64 b7 bd d0 41 c1 3c 0b df 51 be
       -0.11561602 -0.08954669 0.023590952 -0.2049524

model_2/time_distributed_4/dense_6/MatMul/ReadVariableOp:0 f4 [69, 16]
000000 1c 56 99 be b4 58 b5 3e 7a e7 58 3e d6 b3 bb bd
       -0.2994851 0.35419238 0.21182051 -0.0916516
000010 81 46 8c 3f 44 4f 5e be 26 c1 94 3e 02 5b 46 3d
       1.0959016 -0.21709925 0.2905361 0.048426636
000020 c0 91 ba bd 97 5f c3 3d 39 76 d4 be b9 6a 2a be
       -0.09109831 0.09539717 -0.41496447 -0.16642274
000030 5e 4c a5 be 24 be 41 be d2 f6 fc 3d 93 20 f7 3e
       -0.32284826 -0.18920189 0.12351765 0.4826704
000040 b6 66 b3 be 24 b7 7c be 66 67 17 3e 3c 92 84 be
       -0.350393 -0.24679238 0.14785537 -0.25892818
000050 de 47 92 bd 37 a6 50 3e 9d 53 5f be 8c 25 33 3e
       -0.07142614 0.20375906 -0.2180924 0.17494792
000060 8e 31 37 3e d8 42 c2 3c bf 32 90 3c 1b fe 55 be
       0.17889997 0.023713514 0.017602323 -0.20897715
000070 03 84 c7 3d a9 0d 6d be 03 fe 04 3e 32 5b b5 3d
       0.09741976 -0.23149742 0.12987523 0.08855285
000080 08 aa 82 be 82 76 7b be 99 6e 1d 3e a6 d7 35 bd
       -0.2552035 -0.24556926 0.15374221 -0.04439511
000090 36 02 11 be ed 31 2d be e0 e3 93 3e e9 60 d0 bd
       -0.14161 -0.16913576 0.28884792 -0.10174734
0000a0 35 af c6 be 82 0e 5e 3e 4b 80 b5 bc 2a 86 7e be
       -0.38805547 0.21685222 -0.022155901 -0.24855867
0000b0 c6 7d 55 be b8 0b ae 3d 7a 9f be 3e a8 3c 71 bc
       -0.2084876 0.08498329 0.37231046 -0.014723934
0000c0 ec ea c2 bd 66 72 4c 3e 5e ff 60 3e 62 c0 5d be
       -0.09517464 0.19965515 0.21972415 -0.2165542
0000d0 9b ae 6e 3e ae bc e7 3c e7 84 9d 3e a0 e9 e2 3d
       0.23308794 0.028288212 0.3076546 0.11079717
0000e0 f0 60 96 bd b5 a6 2c 3e 63 69 4f 3e ae 0c 8d be
       -0.07342708 0.16860469 0.20255046 -0.27548736
0000f0 93 39 e6 bd d2 36 8d be f2 6c e5 3d f5 e5 35 3e
       -0.1124145 -0.27580887 0.1120242 0.17763503
000100 e4 1a 0d 3e 42 c8 32 bd 27 17 35 be 53 cd e4 3d
       0.13779789 -0.043648012 -0.17684613 0.11171975
000110 4c 97 90 be 40 cd 8c be 30 ea 71 3d 6b d1 73 3e
       -0.2824043 -0.27500343 0.05906123 0.23810355
000120 f1 4f 72 bd fa e2 6c be 12 83 ae 3d e2 c2 1d 3d
       -0.05915827 -0.2313346 0.085210934 0.038515933
000130 3c b0 0a 3e 37 ee 86 3e 9f 8e 6b be dd 6a 08 be
       0.1354379 0.26353619 -0.23003624 -0.13322015
000140 3b 1d 4c be 74 98 07 3f f2 7c 3e 3f cf f8 3c bd
       -0.19933026 0.52967 0.744094 -0.04613572
000150 8e 74 93 3e 8f 0c 64 be 5d 0a 20 3e 91 c4 c8 be
       0.28799862 -0.22270416 0.15628953 -0.39212468
000160 2e c0 a9 3e 7b 4c ed 3e 9f 19 bb 3e 36 aa b4 be
       0.33154434 0.46347412 0.36542985 -0.3528611
000170 e0 8c d7 be 57 91 c6 be dd 77 58 be dc 10 fc 3d
       -0.42099667 -0.3878276 -0.21139474 0.12307903
000180 69 06 91 be e4 a0 05 be db ee be 3d c5 6e ae 3e
       -0.28325203 -0.13049656 0.09322902 0.34068885
000190 5c 37 05 bd cd 06 1d be 26 0a cd 3d 22 74 94 3d
       -0.032523498 -0.15334626 0.10011701 0.07248713
0001a0 fd b4 f4 bc 99 ec 47 3e 8e 92 90 3e 2b 8f 93 3d
       -0.029871458 0.19523849 0.28236812 0.072050415
0001b0 a4 33 a0 bd 7c 6c 80 be cb de 0a 3e 3f 1d 88 3c
       -0.0782235 -0.25082767 0.13561551 0.016615508
0001c0 53 56 03 3e 0f 8f 81 3e a4 76 ce 3e 09 76 7f 3e
       0.12825899 0.25304458 0.4032489 0.2494737
0001d0 6a fe f4 3e 70 f8 16 bf 99 fb 42 bd 3f 6c 41 3e
       0.47850353 -0.58972836 -0.047603223 0.18888949
0001e0 66 f6 d9 3e 31 65 6a bc 45 d6 08 3e f0 09 ca 3c
       0.425708 -0.0143063525 0.13362987 0.024662942
0001f0 1d ea 19 3e 11 3d 36 3d bd b6 a9 3e 3b 62 c4 bd
       0.15030713 0.04449183 0.3314723 -0.095890485
000200 55 91 19 3c 98 5b 55 3e 91 4a 05 be b8 ea 5b 3d
       0.009373029 0.20835721 -0.13016726 0.053690642
000210 89 34 96 be 9a 9e 2a 3f 69 de 5b be ea d9 67 be
       -0.29336956 0.66648257 -0.21471561 -0.22641721
000220 af a9 63 3f 35 01 1c bd bb 55 16 be 1f 08 ea 3e
       0.8893079 -0.03808709 -0.14681141 0.4570932
000230 08 ad 62 3e aa 84 a0 3e c6 90 f6 3e ea 7a 7f be
       0.22136319 0.31351215 0.48157328 -0.24949232
000240 f4 26 31 be 9c 89 40 bd 93 28 06 3f 86 11 7a 3d
       -0.17300016 -0.047006235 0.5240566 0.061051868
000250 cb 1d 37 be 05 18 a1 be ae c1 11 3e 6c a5 b4 3e
       -0.17882459 -0.31463638 0.14234039 0.35282457
000260 de aa 87 3e d5 6c 93 be dd 0f 94 3e 8e 86 ec 3b
       0.2649755 -0.2879397 0.28918353 0.0072181886
000270 94 11 28 be 45 ac 61 be 65 0c 38 3e e3 f6 b3 bc
       -0.16412956 -0.22038372 0.17973478 -0.02196831
000280 c7 72 56 3e c2 39 ed 3d 82 76 1c bd 3f b6 bb 3d
       0.20942222 0.11583282 -0.038198955 0.0916562
000290 c0 fc 3a bd 93 b5 d6 be 94 53 3c be 9c 3f 28 3d
       -0.045651197 -0.41935405 -0.18391258 0.041076288
0002a0 19 ef 39 bd c7 78 b5 be e4 e0 84 be 51 81 ac 3e
       -0.045394037 -0.35443708 -0.25952828 0.3369241
0002b0 d6 e1 53 3e 50 9f 8c 3d 10 62 0a 3e 3c 02 86 be
       0.20691618 0.06866324 0.1351397 -0.2617358
0002c0 26 e8 ac be 86 0f 90 3c 7d b4 d1 3e 81 6a bf be
       -0.33770865 0.017585527 0.40958014 -0.37385944
0002d0 98 cb 62 be 88 99 ce 3e 5f ac c4 3d d6 ad aa bd
       -0.22147977 0.4035151 0.0960319 -0.08333938
0002e0 61 a1 f0 bc 3e 86 e4 3e 12 75 81 3e 02 9a 8c bd
       -0.029373826 0.4463367 0.2528463 -0.06865312
0002f0 14 1d 84 be 6a f4 d2 bd 7d b7 73 bf 80 22 ff 3d
       -0.25803435 -0.103005245 -0.95201856 0.12457752
000300 9e 58 76 3e f5 ca b7 be ea 81 18 bf 89 c7 95 bc
       0.24057242 -0.3589703 -0.59573233 -0.018283622
000310 b9 bc 35 bf e5 7d 7f 3c f7 fd 77 bd 1c 7c 59 be
       -0.7099109 0.01559398 -0.060544934 -0.2123875
000320 36 ab a1 3e 16 6f 76 3c 1a 82 2f be e7 0c 48 3e
       0.31575936 0.015041133 -0.17139474 0.19536172
000330 27 ae 7e 3e 22 81 84 3e 2f 65 10 3d b4 ec f8 be
       0.24871121 0.2587977 0.035252746 -0.4861809
000340 ad 81 ab bd 06 17 07 3e 25 d9 04 be 0e a1 79 be
       -0.08374343 0.13192376 -0.12973459 -0.24377844
000350 ae 84 a0 3e f4 d2 9b be 16 de 82 be 4b 57 82 be
       0.31351227 -0.30434382 -0.25560063 -0.25457224
000360 e0 4c 22 be 83 30 3b 3f 07 2d 35 3f 8e 66 db be
       -0.15849638 0.731209 0.7077183 -0.4285168
000370 34 88 90 3d be 02 5d be fd ea 10 bf a1 0d 25 bd
       0.07057229 -0.21583077 -0.56608564 -0.0402962
000380 f6 af 44 be 8d e1 09 be 05 b0 a8 be 4f 5f 2b be
       -0.19207749 -0.13464947 -0.32946792 -0.16735576
000390 ff 39 1a 3f 56 04 50 3e 3d 67 84 3d f4 57 93 3a
       0.60244745 0.20314154 0.06465004 0.0011241422
0003a0 47 72 9d 3e 59 01 ee 3e 55 ff fb 3e 6f dc 91 3e
       0.3075125 0.46485403 0.4921824 0.2848849
0003b0 f5 24 c6 be 66 1a 8d 3e d6 f0 23 be 55 63 c3 be
       -0.3870007 0.27559203 -0.1600984 -0.38161722
0003c0 44 86 7a 3e bf c9 9e 3d ba c1 c2 be 1f a3 83 bd
       0.24465281 0.07753324 -0.38038427 -0.06427597
0003d0 e8 32 8b be 83 5d ac 3d 81 33 7d 3e 42 03 58 3e
       -0.27187276 0.084162734 0.24726678 0.21094993
0003e0 1e 0c ca bd 93 ef 3e bd e1 2f ba bd b2 8b d7 3d
       -0.098655924 -0.046615195 -0.090911634 0.10524692
0003f0 d6 b6 d3 3d d6 fc d2 bb f1 bb c2 be bd ad 17 3e
       0.103376076 -0.006438832 -0.38034013 0.1481237

model_2/time_distributed_4/dense_6/BiasAdd/ReadVariableOp:0 f4 [16]
000000 f8 27 d2 3d a7 12 5a 3d 9b 4c 75 bd 1b 47 25 3d
       0.1026153 0.053240445 -0.05988751 0.040351015
000010 f5 b3 f7 bc 2d af cf bd d8 0f c8 bc c2 21 f0 3d
       -0.030237177 -0.10140834 -0.024421617 0.11725189
000020 93 4b 53 3c 1b 5d 85 bc 09 21 82 bd 0f 68 6a 3d
       0.012896436 -0.016279748 -0.06353957 0.057228144
000030 96 bb 66 3d 48 2c 20 3e 99 fd e7 bd 95 d5 34 3d
       0.05633124 0.15641892 -0.11327667 0.044149

model_2/time_distributed_2/dense_8/MatMul/ReadVariableOp:0 f4 [16, 1]
000000 e1 73 a2 be 1e 7b 0f be f3 31 c3 3e 3b fe 86 3e
       -0.31729034 -0.14011809 0.38124046 0.26365837
000010 6a f6 ca 3e 7d 73 96 bd e0 35 1e 3e be a7 47 3e
       0.39641124 -0.073462464 0.15450239 0.19497582
000020 9c fe 03 bf 05 65 11 3e aa 2c e0 be ba d8 40 3e
       -0.5156038 0.14198692 -0.43784076 0.18832675
000030 d6 f2 f5 be 3a 54 94 bd fa a4 c1 be da 9f 19 bc
       -0.48036832 -0.072426274 -0.3782118 -0.0093764905

W__497 f4 [2, 48, 49]
000000 17 19 13 3f 1f 63 a7 3d 9d 3b fc be dc e0 80 3f
       0.5746016 0.08173203 -0.4926423 1.0068622
000010 9a 41 84 be 7a e7 4d bf 18 96 78 3f 22 18 6e bf
       -0.258313 -0.8043133 0.97104025 -0.93005574
000020 cc b6 56 bf f2 e6 a1 be f0 b0 43 bf b8 e8 12 3f
       -0.83872676 -0.3162151 -0.7644186 0.5738635
000030 68 01 60 bf d6 50 33 3f b1 53 43 bf d6 c7 07 40
       -0.87502146 0.7004522 -0.7629958 2.121572
000040 19 aa 3e bf 3d 4e 7b be e1 42 13 bf 9e 29 a5 3f
       -0.744783 -0.24541564 -0.57523924 1.2903326
000050 3f 22 03 3d 26 08 f6 bd 39 3b 04 3f 97 84 d7 be
       0.03201508 -0.12013273 0.51652867 -0.42093346
000060 f0 28 fc be 12 df 32 3f 5d 90 1b bf 1c f6 4a c0
       -0.49249983 0.6987163 -0.60767156 -3.1712713
000070 91 43 1e 3f 3e 6f 05 3f ca 2d bb bf af d7 87 3c
       0.6182185 0.5212287 -1.4623349 0.016582338
000080 75 2e 00 bf 43 79 77 3e 52 b0 60 3e 01 be e3 be
       -0.5007089 0.24167351 0.21942261 -0.444809
000090 75 a7 31 bf 13 55 21 be 60 d6 0b bf 5e 3d 63 be
       -0.69396144 -0.1575511 -0.54623985 -0.22191378
0000a0 d0 3b 79 3e b0 66 08 3f ff 8e 5d be 9f 1e 45 3e
       0.24339223 0.5328169 -0.2163658 0.19249962
0000b0 40 9f 61 3e 81 50 d9 bd b4 0d b0 bd 02 eb db 3d
       0.22033405 -0.10611058 -0.08596364 0.107381836
0000c0 fd cc 29 be 61 9f 83 bf 05 a7 c5 be ec 02 92 be
       -0.16582103 -1.0283014 -0.38603988 -0.28517854
0000d0 54 09 8e be 5e a1 fc be da 99 06 3f 96 74 dc 3e
       -0.27741492 -0.49341863 0.5257851 0.43057698
0000e0 99 25 3f 3f 2e 39 93 3e e5 80 e6 3e d6 b9 0f be
       0.74666744 0.28754562 0.45020214 -0.14035735
0000f0 58 f1 0f 3f 17 b3 29 bf a2 cd 3b 3e 85 88 09 3f
       0.56227636 -0.66288894 0.18340161 0.5372394
000100 62 9b 93 be eb af 83 3e ee 8a a2 3f b3 66 d4 3e
       -0.28829485 0.25720152 1.2698648 0.41484603
000110 87 79 d8 be 65 10 25 be d1 d1 5e be 3e b4 fd bd
       -0.42280218 -0.16119535 -0.21759726 -0.12387894
000120 1a a3 24 3f b3 59 d5 3e 0c 53 93 bf d8 ca d3 3f
       0.64311373 0.41669998 -1.1509719 1.6546278
000130 ad bf 98 3d 58 57 80 3b 50 0b 8a be 3e a5 07 3f
       0.07458434 0.003916662 -0.26961756 0.52986515
000140 e1 65 88 3f f2 41 1a 3e 9c 2f 0e be 6d 30 fc 3d
       1.0656091 0.15064219 -0.13885349 0.12313924
000150 0d 22 56 3f b8 d9 a9 3e ab a7 97 be f0 e4 d4 be
       0.8364571 0.3317392 -0.29620108 -0.41580915
000160 98 fe 82 3f 5c b2 9d be 80 4f a2 bc bb 49 e9 3d
       1.0233946 -0.3080014 -0.0198133 0.11391016
000170 c0 a2 bb bd 3e 1a a3 be ab 38 79 3d 1f 90 49 3d
       -0.091619015 -0.3185596 0.06084506 0.04920971
000180 3a 12 e0 3c 59 ec 76 bc 20 f3 10 bf c7 1b ce 3e
       0.027352441 -0.015070998 -0.5662098 0.40255567
000190 c2 4b 2f 3d c2 b5 d3 be 09 a7 05 3f f0 26 9e 3e
       0.042796858 -0.41349608 0.52208 0.30889082
0001a0 b3 f9 22 bf ae a4 58 bd 93 1c 86 be 6f 6b b4 be
       -0.6366226 -0.052891426 -0.26193675 -0.35238215
0001b0 cc e9 20 3f 74 e5 80 3f 43 86 a2 bc ff 40 02 3f
       0.62856746 1.0070024 -0.019839412 0.50880426
0001c0 d6 48 ef be f5 a2 ff 3c 4a 5c f5 3f d6 89 4b 3f
       -0.46735257 0.031205634 1.9168789 0.79507196
0001d0 b0 8a 75 3e 58 1f 81 be c9 3f 88 bf d7 bf 1a 3e
       0.23978686 -0.25219226 -1.0644466 0.15112244
0001e0 0a 1b a0 3f 16 ff a4 bb 84 bd 4b 3e c5 d3 d4 3e
       1.2508252 -0.0050352914 0.19896513 0.41567817
0001f0 e3 09 0e bf b4 f7 91 bf 2a f1 e4 3b ab 5a 9d bf
       -0.55483836 -1.1403718 0.006986757 -1.2293295
000200 6b f9 e7 be 7f e6 da 3d 45 de 04 3f 6b c2 89 3f
       -0.45307478 0.10688495 0.51901656 1.0762457
000210 2f 94 80 bd 41 bf 99 be 7f 69 5f 3f ea 40 0b bf
       -0.06278264 -0.30028728 0.8727035 -0.54395926
000220 9d 14 a4 be f8 39 82 3f e9 cb 09 bd bf 5a 2b 3f
       -0.32046977 1.0173941 -0.03364173 0.6693534
000230 3d 98 9b be f0 74 41 3c 8c 23 b4 bf 02 8c a5 3e
       -0.30389586 0.011807665 -1.4073348 0.3233338
000240 72 e9 64 be cc 06 3c 3e e1 b2 23 3e d4 af 21 bf
       -0.22354677 0.18361968 0.15986206 -0.6315892
000250 66 55 9f 3e 7a 4a ce 3e b0 6b b7 3e 64 67 cf 3e
       0.3111984 0.40291196 0.35824347 0.40508568
000260 00 66 35 3f 74 7d 4c 3f 63 00 8e 3e 95 21 c9 3e
       0.70858765 0.79878926 0.2773467 0.39283434
000270 d2 ee 9b be ca bd f4 3b db 0e 4d bf 0f be 2a 3e
       -0.30455643 0.0074689137 -0.8010079 0.16674064
000280 c6 f4 f3 3e 1a 09 a1 3e b6 c2 c9 3e 66 48 d1 3e
       0.47647685 0.31452256 0.39406365 0.40875548
000290 86 64 22 bf bf 66 15 3f ca 85 f6 be 73 14 5d 3f
       -0.63434637 0.58359903 -0.48148948 0.8635933
0002a0 4f 90 10 3e 02 01 67 be 9c b5 96 3e 82 08 08 be
       0.1411755 -0.22558978 0.29435432 -0.13284495
0002b0 91 73 0b bf 27 07 fc 3e 1c 26 24 3e ef f8 ea bd
       -0.54473215 0.49224207 0.16030163 -0.114732616
0002c0 96 fb ca 3e 17 76 6e 3e 93 a4 b1 be de 8d fe be
       0.3964507 0.23287235 -0.34695873 -0.4971761
0002d0 0c 0f 66 3e 27 dd 1d bf 71 34 9a be 30 31 02 3f
       0.22466677 -0.61665577 -0.30118135 0.50856304
0002e0 b1 ca d0 3d 3f df ca 3e 35 6d 73 be e5 f8 9e be
       0.1019491 0.39623448 -0.23772128 -0.31049266
0002f0 8a 35 a1 3f b0 2b 0e be ec 88 74 3d f0 12 52 be
       1.2594464 -0.13883853 0.05970089 -0.20515037
000300 02 15 30 3e 1b ec e5 bd c2 65 94 bc 9f ec 60 be
       0.17195514 -0.11226674 -0.018114928 -0.21965264
000310 e9 f7 a5 bf 5c 24 86 3e e7 bc 58 3f cb 46 96 3e
       -1.2966281 0.26199615 0.8466324 0.29350886
000320 f1 d0 0e bf 70 9a e8 be ae 1f 87 bf 26 34 27 3f
       -0.5578757 -0.45430326 -1.0556543 0.6531395
000330 cf 4e ec 3f f3 dc 49 be be f7 11 3f 3c c3 8a 3f
       1.846155 -0.19713192 0.5701865 1.0840831
000340 54 ea 34 bf a8 23 ec 3e 90 a6 97 be e0 d8 8e be
       -0.70670056 0.46120954 -0.29619265 -0.27899837
000350 1f 66 63 3e 57 c9 be bd 3d a3 87 3f 4f d7 01 bd
       0.22206925 -0.09315746 1.0596691 -0.031699475
000360 ff 59 a0 be 47 ff 10 3e 16 6e 30 bf 20 9e a5 3f
       -0.31318662 0.1415988 -0.6891798 1.2938881
000370 04 e7 38 3f 53 32 a9 bf ff 6e 60 3f 5c 49 fa be
       0.722275 -1.3218483 0.87669367 -0.48884094
000380 cd a8 cf 3e 10 68 5f 3f 36 4e d4 3e bb f6 e9 be
       0.40558472 0.8726816 0.4146592 -0.45696053
000390 c3 d7 56 3e f8 ce 59 bf d0 e9 1c be 1f 26 57 3e
       0.20980744 -0.85081434 -0.15323567 0.21010636
0003a0 fd c6 8b 3f 52 3f 2b 3e 1d e9 92 3e 8a 10 a4 bd
       1.0920101 0.16723374 0.28693476 -0.08010967
0003b0 9d 76 ce 3e c3 ff 00 bf 0b a2 0d bf d0 3f 01 3c
       0.4032487 -0.5039026 -0.5532538 0.007888749
0003c0 90 ed e0 be d6 28 a5 3c de a6 e6 be 9b 01 c5 be
       -0.43931246 0.020161074 -0.45049185 -0.38477787
0003d0 c5 f3 ae 3e d8 ec 8f 3e 3b 9c 33 3f 9e fa 4a 3f
       0.34170356 0.28110385 0.70160264 0.7928866
0003e0 24 87 29 3e 8f d1 02 40 c5 68 09 3f 42 e5 e8 be
       0.16555458 2.0440404 0.5367549 -0.4548741
0003f0 aa 15 40 bf 6d c6 8b 3f c1 39 0b be f5 4b 19 3e
       -0.75033057 1.091993 -0.1359625 0.14970382

W__471 f4 [2, 40, 24]
000000 88 fb 22 3f fe 39 56 3d ee df 92 3e e6 40 89 3e
       0.63665056 0.0523014 0.2868647 0.26807326
000010 25 63 44 bf 82 7a 86 bd 06 7a b3 3e 81 d3 58 bf
       -0.7671378 -0.06566335 0.35054034 -0.8469773
000020 d8 40 af be f2 d6 6a 3e 26 76 4f 3e 0e 77 5a 3f
       -0.3422916 0.22933558 0.20259914 0.85337913
000030 ea b3 e7 bd 65 52 03 3f dd 9e 77 3d 99 d3 d0 be
       -0.11313613 0.512976 0.06045424 -0.40786436
000040 ac 7f 47 bf b7 48 92 3d 16 3a 39 bf 8f 93 0d 3e
       -0.77929187 0.071427755 -0.7235426 0.1382582
000050 26 d6 30 3f 0c 05 aa 3e 06 82 33 bf 40 b8 84 3e
       0.69076765 0.33206975 -0.70120275 0.25921822
000060 0f d1 61 3e 1e 86 06 bf 85 da ca be 02 3a ab bc
       0.22052406 -0.52548397 -0.39619842 -0.020901684
000070 cd ff fb 3b e4 df b6 be 30 83 b4 3e 37 70 69 be
       0.007690406 -0.3571769 0.35256338 -0.22796713
000080 64 c0 ad bd d4 a2 8c be 03 51 8c be 1e 9d c5 3e
       -0.08483961 -0.27467978 -0.27405557 0.38596433
000090 7a 1d 81 3e 32 d2 03 3f bd 05 37 be c4 05 e6 bd
       0.252178 0.5149261 -0.17873283 -0.112315685
0000a0 ee 8f ec bc b3 98 90 3a f1 e1 cf be 4e a1 10 3f
       -0.028877225 0.0011031836 -0.40602067 0.5649613
0000b0 24 6d 3a be 4d af ab 3e 3c cc 18 bf 3b be eb bd
       -0.18205696 0.3353218 -0.59686637 -0.11510893
0000c0 93 ca 0b be 5f b6 04 be 86 6f 42 3f 49 0b 95 3a
       -0.13651495 -0.12960194 0.7595142 0.0011371161
0000d0 89 ae c2 be ee f5 c4 3e 19 ce 26 3e 9a 36 d6 be
       -0.38023785 0.3846888 0.16289558 -0.41838533
0000e0 1b 01 7b be e8 fe 3d 3f de c1 f5 3e bf af da bd
       -0.2451214 0.7421708 0.4799947 -0.10678052
0000f0 7c a9 a3 be 64 c5 b4 bd 20 d5 b2 3d fd 12 8e be
       -0.31965244 -0.08826712 0.087320566 -0.27748862
000100 70 28 0a bf 19 79 e1 be 5d d5 94 3e 29 9a 8e 3f
       -0.5396795 -0.44037703 0.29069033 1.1140796
000110 50 34 6d 3e df 62 05 3e 0a 7a d1 3d 6f ae 82 3e
       0.23164487 0.13025998 0.10228355 0.25523707
000120 1f 83 2c 3e 64 5c 06 3e 7d 95 09 3e b3 fd d7 3e
       0.16846894 0.13121182 0.13435932 0.42185745
000130 5d 44 c2 be 7b 74 48 be 0d a2 4f be c6 0e 00 bf
       -0.37942782 -0.19575684 -0.20276661 -0.5002254
000140 cb 48 65 bf 9a da f5 bc d3 3c 1b 3f 09 3d f7 bd
       -0.895642 -0.030011464 0.60639685 -0.120721884
000150 93 c5 91 be 2e 17 53 bd 4e 88 07 3e c2 a5 f7 bd
       -0.2847105 -0.051535778 0.1323559 -0.12092163
000160 26 d1 f4 be 7a 7d 35 bc ab ec bb 3e 46 c1 ae 3e
       -0.47815818 -0.011077279 0.36704 0.3413183
000170 7a 34 a4 3d c0 22 be 3d c6 79 5b bd 87 e3 e9 3d
       0.080178216 0.09283972 -0.05358293 0.114203505
000180 fb 6c 2a 3e f3 40 89 3e dd a9 03 bf 6b 71 a7 bc
       0.16643135 0.26807365 -0.51431066 -0.020439824
000190 c6 47 fe 3d 88 75 56 3d 3b 8d 04 3f 62 08 45 be
       0.124160334 0.05235818 0.51778 -0.19241479
0001a0 45 c9 72 be 54 fd bf bc 25 b3 90 3d 76 f0 67 be
       -0.2370959 -0.023436226 0.07065419 -0.22650322
0001b0 cb 4c f2 be 1f 5e d2 3e 46 10 05 3f ca b6 17 bf
       -0.47324213 0.41087434 0.51977956 -0.5926329
0001c0 84 87 3c 3d e8 2a 76 bf 54 9a 1d 3f b4 1a 46 3e
       0.046027675 -0.9615922 0.6156361 0.19346124
0001d0 e2 8a 39 be b5 93 ca bd 82 c8 f1 bc c7 cf df 3e
       -0.18119386 -0.09891454 -0.029514555 0.4371321
0001e0 1a 2c 6c be 66 f0 fd bd 08 b8 6f 3f 33 01 29 3d
       -0.23063698 -0.12399368 0.93640184 0.04126091
0001f0 83 1f 7a bf 58 cd 15 3c 41 85 fc 3e 9c 85 85 3c
       -0.97704333 0.009143196 0.49320415 0.016299061
000200 8b ac 1b 3e 49 4e 9b be 96 58 c4 bd a5 4c 3f be
       0.15202539 -0.30333164 -0.09587209 -0.18681581
000210 1c 02 41 bf b3 b7 c4 3f c8 5f 3b 3e 80 b0 0a bf
       -0.75393844 1.536856 0.18298256 -0.5417557
000220 36 9e c1 3e 1a 32 45 3f bb 00 1a 3f 33 be 74 bf
       0.37816018 0.77029574 0.60157365 -0.9560272
000230 fa ca 99 bb a9 96 6b 3f 2d 51 42 be 27 62 e2 be
       -0.004693386 0.92026764 -0.18976279 -0.4421551
000240 47 72 35 3f 50 53 28 ba c0 a6 94 3c b6 3b 51 3e
       0.708775 -0.0006421106 0.018145919 0.20432934
000250 b1 54 06 be 57 b4 6a 3e e8 59 5f 3d d9 89 84 3e
       -0.13118245 0.22920357 0.0545291 0.2588642
000260 97 49 df 3e ab 7a 1b be d7 0e 60 bf 20 c0 5a 3d
       0.43610832 -0.15183513 -0.87522644 0.05340588
000270 fc fd 7d 3e 35 f5 07 3f 89 88 eb be bc e4 2f 3c
       0.24803919 0.5310853 -0.46002606 0.010735687
000280 3d 58 13 bf 15 b9 b4 3e 55 3e 2c be 29 3c b4 3e
       -0.57556516 0.35297456 -0.16820653 0.3520215
000290 56 cb 21 3e 46 62 b9 3e 6a 80 55 bd 9f ba 0e be
       0.15800223 0.3620779 -0.05212442 -0.13938378
0002a0 90 79 2a 3e 5b a1 55 be 68 93 1c bf cc a8 f3 3d
       0.16647935 -0.20862333 -0.61162424 0.1189743
0002b0 bc 5e db 3e 23 ed 48 3f 3e 78 92 3c f6 0f 65 be
       0.42845714 0.7848684 0.017879602 -0.2236937
0002c0 a2 cc 38 3e b3 1f 8c be b9 c5 40 bf b6 5f 06 3f
       0.18046811 -0.27367935 -0.753017 0.52489793
0002d0 f0 11 ab 3e cd 31 03 3f 82 c6 fc be 00 b6 7c 3e
       0.33412123 0.51247865 -0.493702 0.24678802
0002e0 33 2f db 3d c6 9b 0e 3f a8 7d 5c bf 07 0a a6 3e
       0.10702362 0.5570644 -0.86129236 0.32429525
0002f0 f3 7a 62 be a4 7a 4f be e7 d2 ff be a6 b2 94 be
       -0.22117214 -0.20261627 -0.49965593 -0.29042548
000300 5b a9 e2 be 9e 58 06 3f 67 7d e5 be 88 ca b4 be
       -0.44269833 0.5247897 -0.44822237 -0.3531077
000310 18 fe bd bf 05 58 e2 3e 03 84 c3 3e 03 cd 47 3f
       -1.4843168 0.4420778 0.38186654 0.780472
000320 28 20 81 bd 98 8a 23 bf 62 6e 07 40 d6 21 1a 3f
       -0.063049614 -0.6388335 2.1161122 0.6020788
000330 65 b2 23 bf 12 af 4d 3d 73 22 17 3e 24 6e 09 be
       -0.63944083 0.05021579 0.14759235 -0.13420922
000340 fc 0c cd 3e b7 d7 ed be c5 25 b8 3f 7f 3d 66 be
       0.4004897 -0.4645364 1.4386526 -0.22484396
000350 29 89 29 3e 11 7e 37 3e 26 d0 1a 3f cc ae 51 bd
       0.16556229 0.17919184 0.6047386 -0.05119209
000360 2e 4b 5a 3c fd 1e 19 3e 83 c4 18 bf b9 df db be
       0.013323588 0.14953227 -0.59674853 -0.42944124
000370 8b 98 62 be 48 4d 2e be a7 95 8f 3c ed 5c 41 be
       -0.22128503 -0.17021668 0.017527414 -0.18883105
000380 67 18 40 3e 92 f6 7e be d0 11 7e 3d 3e c6 a8 3e
       0.18759309 -0.24898747 0.062028706 0.32963747
000390 a3 1e 97 3e 08 2e fb 3e c4 f8 c3 bd ee 7c 2d bd
       0.2951556 0.49058557 -0.09568933 -0.04235547
0003a0 fa 6c 88 3e e7 4d d6 3e fe fa 01 bf e3 02 f1 3e
       0.26645643 0.4185631 -0.5077361 0.47072515
0003b0 69 bb 3e be 16 0a 98 bb 2b 5e e4 be 50 01 93 be
       -0.18626179 -0.004639874 -0.44603094 -0.2871194
0003c0 4b be a6 3e f1 09 f4 3e 32 92 23 be 74 87 65 3e
       0.32567057 0.47663835 -0.15973738 0.22414953
0003d0 59 af ad 3e 82 e4 84 be a8 bd 8b 3e d0 a4 37 3e
       0.33922842 -0.25955588 0.27293134 0.17933965
0003e0 54 a1 20 3e 82 54 f6 bc 6c 3f 63 3c 76 cd b4 3e
       0.15686542 -0.030069593 0.013870101 0.35313004
0003f0 77 b2 63 be 34 52 a2 3e 35 d4 12 bd 11 d7 6d be
       -0.22236048 0.3170334 -0.035846908 -0.23226573

R__498 f4 [2, 48, 12]
000000 59 e1 5c bf d4 45 3c 3f 0f 25 ca 3e dd 6c 45 3d
       -0.86281353 0.7354405 0.39481398 0.048199523
000010 d3 ed c6 3e b8 b1 00 3e 11 01 3a 3f 98 60 e2 be
       0.3885332 0.12567794 0.7265788 -0.4421432
000020 d6 69 25 be f9 d2 a2 bf f5 6e 63 bf 03 90 fa bc
       -0.16153654 -1.2720634 -0.8884118 -0.030586248
000030 b7 9d 87 3c 4e 96 8a 3e 2e df 74 3f b7 63 6d 3f
       0.016554696 0.27067798 0.95653045 0.9273028
000040 79 1a 5c 3e 4b 71 22 bf 49 ad 3a 3f fc e1 1b bc
       0.21494474 -0.6345412 0.7292066 -0.009514328
000050 87 ba 68 be 0c 35 8b bf 81 ae 0c 3e d1 4f d1 bc
       -0.22727405 -1.0875564 0.13738443 -0.025550755
000060 d2 e2 6f bd 2a a3 c4 3e 92 2d 85 bf c2 5f 0f bd
       -0.058565922 0.38405734 -1.0404532 -0.03500343
000070 10 b4 90 ba 86 11 e1 be e1 64 19 be ba 6a 55 bf
       -0.0011039991 -0.43958682 -0.14979888 -0.83365977
000080 af 56 1b 3e c7 d4 6d be e6 21 94 3e 44 1e a3 3e
       0.15169786 -0.232257 0.28932112 0.31859028
000090 3b c2 eb be 26 25 6c be 2c da d8 3e ac 3c ad be
       -0.46046624 -0.23061046 0.42353952 -0.3383535
0000a0 c4 7d 21 bd fb 95 e2 be 56 8c 99 be ef b7 45 be
       -0.03942658 -0.4425505 -0.2998988 -0.19308446
0000b0 2e ca be be 47 33 01 bc e8 6e 32 3e 9b c8 85 3b
       -0.37263626 -0.007885761 0.1742512 0.004082752
0000c0 bc 0a f7 be b7 88 e6 3e 3f 0c 0d 3f 05 27 b4 be
       -0.48250377 0.4502618 0.5509681 -0.3518602
0000d0 aa 3b b7 3f 97 73 28 bf 81 90 b8 3e 49 07 a0 3d
       1.4315083 -0.65801376 0.36047748 0.078138895
0000e0 ce 6e db 3e ea a6 1b be 52 87 6c bf 65 66 1d 3e
       0.42857975 -0.15200391 -0.9239398 0.15371092
0000f0 a5 68 4d be 22 7d 86 be ed c5 d0 be fe 4a 97 be
       -0.2005945 -0.26267344 -0.40776005 -0.29549402
000100 ea 9c d0 3e c7 e5 a3 3e a4 69 dd 3d dc 43 68 3f
       0.40744716 0.32011244 0.10811165 0.90728545
000110 e3 c2 8b 3d 2b 54 55 be 86 a7 02 3f 91 15 cd bd
       0.06824281 -0.20832889 0.5103687 -0.10013879
000120 f0 ef 1e 3f a4 5e cd 3e 13 d9 a6 be 19 80 48 be
       0.62084866 0.40111268 -0.3258749 -0.19580115
000130 07 2e 25 be 01 45 7a 3e c5 ac b3 3e 23 4b 1f be
       -0.1613084 0.24440385 0.3509275 -0.15556006
000140 9f 7c 81 3e e8 2b e7 3c e3 c2 3a 3d 9b b8 2d be
       0.2529039 0.028219178 0.045596015 -0.16964953
000150 0d dd 6e 3e e2 8e 16 3f e0 6e d4 bd 25 51 a6 3b
       0.23326512 0.5881177 -0.1037271 0.005075591
000160 49 55 aa 3f e9 22 23 bf 78 b6 3a 3d 31 86 80 be
       1.3307277 -0.63725144 0.045584172 -0.2510238
000170 c2 8a 01 3f 3f 19 f7 be cc 4a d0 bd 80 cf e9 be
       0.5060235 -0.4826145 -0.10170516 -0.45666122
000180 81 09 53 be 01 24 67 be 1b ea f8 3e f3 5d 21 bf
       -0.20609094 -0.22572328 0.48616108 -0.6303398
000190 10 e9 06 be e3 ef c6 be f2 01 91 be 75 c3 d0 3e
       -0.13174844 -0.38854894 -0.28321797 0.40774122
0001a0 2b cd 87 3e 38 b5 8e be 2d bc 64 3f 95 cc ac 3c
       0.26523718 -0.27872634 0.89349633 0.021093646
0001b0 00 ca 90 be 2b e5 cb bd 28 8c c1 be 64 79 3a 3e
       -0.28279114 -0.0995582 -0.37802243 0.1821037
0001c0 6e bf 1a 3f 4d 51 4f be 52 a5 89 3d 1e 9c 03 3f
       0.6044835 -0.20245858 0.067209855 0.5141009
0001d0 dd 0b 29 3f 11 da c7 3d 4b 38 94 3d dc b3 44 bd
       0.66033727 0.0975839 0.072372995 -0.04802309
0001e0 fe 7f 68 bf a2 6d 4c 3f 75 28 c7 3f 95 73 83 bc
       -0.908203 0.79854786 1.5559222 -0.016046325
0001f0 42 83 88 3f 19 82 59 be 6d aa b9 3d d9 8e ca 3e
       1.0665057 -0.21241035 0.09065709 0.3956211
000200 9b 0e 87 3e 68 1a 15 bf 46 4e e1 bf aa a0 ca bc
       0.2637833 -0.5824342 -1.7602012 -0.024734814
000210 be 99 7c bf 4f 91 40 3f db 90 9d 3f b7 71 f5 be
       -0.9867209 0.75221723 1.2309831 -0.4793832
000220 72 1d c6 3e 11 7b 3f 3f 55 a7 1b be 56 f3 8b 3d
       0.3869434 0.7479716 -0.15200551 0.06833522
000230 ef 93 c3 3d b3 bc 57 3f ff 63 e7 3d a3 3b a1 bf
       0.095497005 0.8427231 0.112983696 -1.2596325
000240 e1 89 0d 3d e9 19 ff 3e 47 09 65 3d c6 8b 2e 3f
       0.03455532 0.49824455 0.05591705 0.6818203
000250 fe e8 65 bd b2 5d 74 be 9e 6c eb 3e 76 12 03 bd
       -0.0561304 -0.23863867 0.45981306 -0.032000028
000260 43 b7 d4 3e be 77 a4 3e 56 89 09 be 0f 01 1e 3f
       0.41546068 0.32122606 -0.13431296 0.61720365
000270 5d 5a 46 3e 5e 33 22 3f 44 ee bf 3e 50 cb 3b 3f
       0.19370408 0.6335963 0.3748647 0.73357105
000280 f4 bb 8c bd 88 98 23 3f 62 04 94 3e 1c 7c 23 bf
       -0.06871787 0.6390462 0.28909594 -0.6386125
000290 9c 06 71 bb 12 35 73 bf 0f 67 dc bd 94 8a 62 bf
       -0.003677762 -0.95002854 -0.10761844 -0.88492703
0002a0 52 e2 80 3e 8b f2 5a 3f 44 5d b3 bd 62 fa 8d 3d
       0.2517267 0.8552634 -0.087580234 0.06932522
0002b0 81 16 2d bf f1 9f 00 3f d9 4a bf 3e 73 c3 59 bf
       -0.67612463 0.5024405 0.37361792 -0.85063857
0002c0 dc 09 4b 3c a7 c8 0f bd 93 47 8d be 4b 68 03 3f
       0.012392487 -0.035103466 -0.2759367 0.51331013
0002d0 8d 09 e6 be b8 ad 30 be 37 f3 06 3e 15 9a 56 bc
       -0.44929162 -0.17253768 0.13178717 -0.013098259
0002e0 9b 31 05 3e a2 f8 f6 be cf 0f 06 be 34 f6 4f 3e
       0.13007204 -0.48236567 -0.13091968 0.20308763
0002f0 05 d0 2a 3e 13 2e bb be 7c 61 4f be 91 07 8a 3e
       0.16680916 -0.3655859 -0.20252031 0.26958898
000300 04 b0 ef be 5f a4 83 be d3 a1 c1 bd 55 12 19 bf
       -0.46813977 -0.25711343 -0.09454694 -0.597936
000310 eb 04 9a bd 07 31 3b be a8 c8 ce 3d 7e fc 06 bf
       -0.07520469 -0.18280421 0.10096866 -0.5272902
000320 b1 4f 44 3e 0c 48 f5 3c 30 ff 92 3e 71 71 06 3f
       0.19171025 0.029941581 0.28710318 0.5251685
000330 2d ff 08 bf 98 d1 48 be c4 ab 84 3c 98 1f 25 bf
       -0.5351437 -0.19611204 0.016195185 -0.64501333
000340 ba 1d f0 3c 97 6c e4 3e f8 15 0c 3f e8 57 b1 3e
       0.02931105 0.44614097 0.5472102 0.3463738
000350 52 e8 51 3e 4e a5 b3 be 43 4a 02 bf ac 50 66 be
       0.2049878 -0.35087055 -0.50894564 -0.22491711
000360 7c e3 b6 bd 21 bd 9c 3e 2e 24 da 3e 4d a5 c4 bd
       -0.08930108 0.30613044 0.42605728 -0.09601841
000370 b9 8c 4c 3e 9d 49 fa 3c 68 f4 04 3e a3 8f 05 3e
       0.19975556 0.03055268 0.12983859 0.13043074
000380 20 37 4d 3e 60 51 18 3e 24 24 27 3e b9 ee 2f be
       0.2004056 0.14874792 0.1632238 -0.17180909
000390 58 d1 99 3d 3f 59 0b 3f df f7 22 bf 40 ac 8a 3e
       0.07510632 0.54433054 -0.6365947 0.2708454
0003a0 cb 99 23 3f 6e a2 be bf a2 8a 0c 3f 8e e7 71 3e
       0.63906544 -1.489332 0.54899037 0.23623487
0003b0 6b eb 28 3e 0b 73 fd be 91 53 e6 3e 92 52 81 bf
       0.16496055 -0.49501833 0.4498563 -1.0103323
0003c0 b0 b6 77 bf 99 fa 46 3d 31 26 09 bf cc d7 6c be
       -0.96763134 0.048578832 -0.535739 -0.23129195
0003d0 77 5c 54 bf 5a a8 22 3e 50 f7 0e 3e 82 fb 51 3e
       -0.8295359 0.15884534 0.1396153 0.20506099
0003e0 45 f9 83 bd 29 64 8d be d4 39 e3 3e 23 0c ac be
       -0.06444029 -0.2761548 0.44380057 -0.3360301
0003f0 6c 0d ce be c4 ca f5 be 65 2a 06 3f c4 48 6f bf
       -0.40244615 -0.4800626 0.5240844 -0.93470407

R__472 f4 [2, 40, 10]
000000 36 ae 2c 3e b5 a9 eb 3d dc 92 44 be 0d b6 80 bd
       0.16863331 0.115069784 -0.19196647 -0.062847234
000010 b5 2b ce 3e 4c e3 77 be fa 66 7a be 82 d8 d1 3e
       0.4026772 -0.242078 -0.24453345 0.40985495
000020 a5 45 de be 66 18 56 be 6e 73 55 3c 02 10 14 bd
       -0.4341251 -0.20907745 0.013028009 -0.03614808
000030 fc b5 25 be 49 fe 78 be 1b e8 39 3c 3d 7f 83 3e
       -0.16182703 -0.24315752 0.011346842 0.25683013
000040 15 8d dd be 1e 0a 2b 3e 92 21 c1 3e 92 e1 06 3e
       -0.432717 0.16703078 0.37720925 0.13171986
000050 53 49 4d be f3 c0 9d be c0 b8 1a be 5c a9 7a be
       -0.20047502 -0.3081127 -0.15109539 -0.24478668
000060 b6 0b 2f 3e 05 a1 ac bc e0 82 08 bd ef 27 f8 3e
       0.17094311 -0.021072874 -0.033327937 0.48467967
000070 d2 41 a8 bc a4 65 4b be bd cd a8 be 0c 2e 55 bf
       -0.020539198 -0.19862992 -0.32969466 -0.83273387
000080 0b d3 33 bd ab 85 4e be 32 46 13 3f 33 4c 42 bd
       -0.043902438 -0.20168178 0.57528985 -0.04743595
000090 d9 eb 46 be 70 a9 6d 3e 84 7c ab be 16 a8 02 bf
       -0.19425906 0.23209167 -0.33493435 -0.5103773
0000a0 f8 cb 74 be c1 79 34 3d 29 2d 09 3d 9f 1c 83 be
       -0.23905933 0.044061426 0.033490334 -0.25607774
0000b0 85 cb 07 3f d6 e8 72 bd 77 a8 91 be a5 d1 16 3e
       0.5304492 -0.05930408 -0.2844884 0.1472841
0000c0 d3 b7 99 3d 64 19 2d be fc 17 5b 3f bc f3 e1 3d
       0.07505765 -0.16904217 0.8558347 0.11032817
0000d0 df 06 7d 3d c8 39 d4 3e 4f f3 25 bd 1f ed a4 be
       0.06177413 0.41450334 -0.04051524 -0.3221216
0000e0 a5 fe 5e be 75 6a 8a bf 3a 0a 5d 3f 13 5c 39 be
       -0.21776827 -1.0813738 0.8634373 -0.1810153
0000f0 ea c1 50 3e 75 b5 35 3e 5d 3e 09 3d 8f 37 81 be
       0.20386472 0.17745002 0.03350674 -0.252377
000100 ab 83 41 bd b4 f5 6b be e9 49 40 3e 6a 2c 64 bc
       -0.04724471 -0.23042947 0.18778194 -0.013926605
000110 7d 10 05 bf 3f 0c 11 be 3a 40 07 3f 30 f1 32 3c
       -0.51978284 -0.14164828 0.52832377 0.010921761
000120 01 6b 5f 3e 41 f9 b4 3e 2d ca e6 be 5e 18 28 bf
       0.21818163 0.35346416 -0.45076123 -0.6566218
000130 86 4c 7c be 1d 9b b0 be bb 64 87 3c c6 a9 8a 3e
       -0.24638566 -0.34493342 0.016527524 0.27082652
000140 92 94 0c 3f e5 8c 61 3d 81 93 30 be 16 b0 36 3d
       0.549142 0.055066008 -0.17243768 0.044601522
000150 9b 7c 8f 3d 45 f9 e4 3e f5 a6 e0 3d 36 f8 c2 bd
       0.070061885 0.44721428 0.109693445 -0.09519999
000160 92 43 2d bf d6 4f 85 be 1a 6e 92 3e 4c 4b 45 3d
       -0.6768123 -0.26037472 0.28599626 0.04816751
000170 bd 56 a0 3e 1d a9 c3 3d df ca 8e bd d3 56 b6 bd
       0.31316176 0.0955374 -0.06972288 -0.08903279
000180 75 e5 a0 3d a4 cb f4 3e 44 00 c4 3c 9f 1a a8 bb
       0.078562655 0.47811615 0.023925908 -0.0051301266
000190 db a2 e5 3c 46 1b c2 bd 13 2c 6a be a1 6d 63 be
       0.028031757 -0.09477858 -0.22868375 -0.22209789
0001a0 f9 ee c2 bd c3 b2 80 3d 80 ae 38 3d fb 79 08 3e
       -0.09518237 0.06284096 0.04508829 0.13327782
0001b0 1c 17 b4 be 6c 00 27 3e 96 50 2b bd e0 1b e5 3d
       -0.3517388 0.16308755 -0.0418249 0.11186957
0001c0 b1 a6 01 3e 3a 53 06 be c9 0a 92 3d 86 95 39 3f
       0.12661244 -0.13117686 0.07130963 0.7249378
0001d0 3b 0e 57 bd ca 74 88 3e eb 3f b0 be 29 60 00 be
       -0.052503806 0.26651603 -0.34423766 -0.12536682
0001e0 aa f3 55 3e c8 3d 82 3e f1 ad 08 be 16 76 33 be
       0.20893732 0.2543776 -0.13347603 -0.17525515
0001f0 10 61 38 bc 0e 43 e6 3e fa 49 63 3e 21 ea 0c 3e
       -0.01125361 0.44973034 0.22196189 0.13761188
000200 77 c4 2e be 43 66 50 ba 4a 0c b9 bc b5 6c 12 3e
       -0.17067133 -0.00079498085 -0.022588868 0.14299281
000210 01 08 11 bd 1a 0c a0 3d 47 be fc bd e8 7d 37 3f
       -0.035408024 0.07814808 -0.1234098 0.7167649
000220 e0 67 e2 bd 70 05 f5 3b bd d9 a1 bd 6e b3 60 3c
       -0.11054969 0.007477455 -0.079028584 0.013714654
000230 08 36 3b 3e 04 c9 f1 bd 34 90 8c 3e 9f e3 03 3d
       0.1828233 -0.11805919 0.27453768 0.0321995
000240 23 aa bd bd 8e ec 05 3e 2e d3 12 3e eb 1f 27 be
       -0.09260967 0.1307852 0.14338371 -0.1632077
000250 fa 1b 81 3d 62 4a a2 3e c2 96 7c 3f b6 ca 8b 3e
       0.06304164 0.31697375 0.9866754 0.27303094
000260 50 d3 e7 3e 8d f5 19 3e b3 f4 c6 be c0 d4 2f bf
       0.45278406 0.15035076 -0.38858566 -0.68684006
000270 00 2a 26 3e bc f4 86 bf 83 af 39 3f 9b ea 26 bf
       0.16226959 -1.0543437 0.72533435 -0.6520173
000280 03 a9 80 3e fc 91 7a 3c 53 3e 29 3d 54 72 cb 3c
       0.25128946 0.015293594 0.041319203 0.02483479
000290 74 82 07 bc 28 e6 0b bf 79 8a ad 3e cf f6 17 be
       -0.008270849 -0.54648066 0.3389471 -0.14840244
0002a0 ec 2e 0c be ab 03 45 3e ac e7 47 3e ec e8 af bc
       -0.13689774 0.1923968 0.1952197 -0.02147337
0002b0 1b b4 53 3d 02 05 47 3e b0 ee 82 be f6 9c a8 3e
       0.051685434 0.19435504 -0.2557273 0.32932252
0002c0 05 cd 59 bd 77 91 ad bc ea 52 82 bd 6d 72 8f 3e
       -0.053174037 -0.021187527 -0.06363471 0.28016987
0002d0 9d b0 68 3f d4 d0 ac 3e 96 62 26 3c a2 44 d8 3e
       0.9089449 0.33753073 0.010155341 0.42239863
0002e0 ed d1 55 3e 33 ba 21 bd f1 d3 9f 3e 80 19 cb bd
       0.20880862 -0.039484214 0.31216386 -0.09916973
0002f0 84 af 68 be ab 12 a8 3e 34 80 03 3f fa 4a 4b bd
       -0.22723204 0.32826743 0.513675 -0.04963205
000300 2e d7 40 3e e5 78 09 bc 36 22 11 be 3d a0 47 3f
       0.18832085 -0.00839064 -0.14173207 0.7797888
000310 51 e8 27 bd 34 f3 3f be a8 34 d9 bd 39 73 d4 bd
       -0.04099304 -0.18745118 -0.106057465 -0.103735395
000320 d1 8c c9 3e 2d 1a 88 3e 9d 7f 96 3d 37 6a 5d 3e
       0.39365247 0.2658247 0.07348559 0.21622549
000330 a2 ef 90 be 9d 2f 15 3f fc 3b 3e 3f f2 10 a6 be
       -0.28307825 0.5827578 0.7431028 -0.32434803
000340 51 73 70 be b1 e1 6d 3d 9d fd 48 3d 73 75 35 3d
       -0.2348149 0.058076564 0.04906999 0.04430146
000350 54 43 cb 3d bc 0a 4f be 68 44 42 be e8 04 ce 3d
       0.09924951 -0.20218939 -0.18971407 0.100595295
000360 2a c7 e1 bd 60 6b 31 bb b5 ed 2e be ee 91 c0 bd
       -0.11024316 -0.0027072057 -0.17082866 -0.09402834
000370 2d e0 9f 3d 2d f7 a6 be 19 57 8f 3d d3 ba de bd
       0.0780643 -0.32610455 0.069990344 -0.10875478
000380 1e d3 4e 3e 74 c9 08 be d0 9a 82 bd 36 96 f5 3e
       0.20197722 -0.13358098 -0.063771844 0.47966164
000390 7d 6f c4 3e 4c d4 b9 bc cf 39 06 3e d3 6c f1 be
       0.3836631 -0.022684239 0.1310799 -0.4715334
0003a0 d5 2a 8d bd 9e f7 77 be 3b 13 16 3e 24 38 14 bd
       -0.06892935 -0.24215552 0.14655773 -0.036186352
0003b0 65 e7 75 be 5e 08 9a 3e a6 2b 90 3e c1 51 d8 be
       -0.24014051 0.3008451 0.281583 -0.42249873
0003c0 5f 09 c3 bd 26 d6 fd be a9 90 b6 be b5 ed 27 bf
       -0.09523272 -0.49577445 -0.35657242 -0.6559709
0003d0 d9 09 64 3e 60 48 7d bd 2a 16 0b be 1a 7c ca 3e
       0.22269382 -0.0618366 -0.13582674 0.39547807
0003e0 8f c0 f4 3d e1 4e a0 bd 29 9a 8f 3d 4a 0a 86 bd
       0.1195079 -0.07827545 0.070118256 -0.06544931
0003f0 49 b4 2d 3e 1c 4e 7a 3e f5 45 86 be 28 9e 34 bc
       0.16963305 0.24443859 -0.26225248 -0.0110240355

B__499 f4 [2, 96]
000000 a8 1a d2 3d 20 ec 66 3e 33 71 19 3e 8d a1 8a 3d
       0.102589905 0.22551012 0.14984588 0.067690946
000010 13 ae 78 3d 06 a3 a5 bd a7 ab 4d 3d e5 9e b6 3d
       0.060712885 -0.08087735 0.05021253 0.089170255
000020 42 db cc bd e0 14 a3 3d da 82 50 bb ac 9d 79 3e
       -0.100027576 0.07962966 -0.0031816275 0.24376553
000030 ea c0 0d 3e 17 5a 03 3e f1 ca 10 3e cb 0a 90 3c
       0.13843122 0.12827335 0.14139916 0.017583271
000040 ab 26 ac bd 97 5d 07 be 50 07 11 3d 44 be 38 3e
       -0.08405813 -0.13219295 0.035407364 0.1804133
000050 b1 f4 b0 3d e9 4f a8 be 26 ab cf bd b5 ee 87 bc
       0.08640421 -0.32873467 -0.10140066 -0.016593317
000060 fe 75 3c 3f 58 da 4d 3f 41 5b 5d 3f 3f 86 70 3f
       0.7361754 0.8041129 0.8646737 0.93954843
000070 c4 81 2b 3f b3 c9 54 3f 2c 38 82 3f 74 b8 4e 3f
       0.6699488 0.8312027 1.0173392 0.80750203
000080 0f 02 89 3f ae 38 0f 3f 91 b9 65 3f 9e 98 09 3f
       1.0703753 0.5594586 0.89736277 0.537485
000090 17 0b 73 3d 48 26 ff 3d c6 c9 73 3d cd c5 1f 3e
       0.059336748 0.124584734 0.059518598 0.15602799
0000a0 59 76 67 bd c7 b5 c1 3d cf 4c f7 3d 1b bc f0 bd
       -0.05650935 0.094584994 0.12075197 -0.11754628
0000b0 54 69 19 be a4 08 58 3e fa fa a5 bc f7 73 3c 3c
       -0.14981586 0.21097046 -0.020261277 0.011502258
0000c0 00 00 00 00 00 00 00 00 00 00 00 00 00 00 00 00
       0.0 0.0 0.0 0.0
0000d0 00 00 00 00 00 00 00 00 00 00 00 00 00 00 00 00
       0.0 0.0 0.0 0.0
0000e0 00 00 00 00 00 00 00 00 00 00 00 00 00 00 00 00
       0.0 0.0 0.0 0.0
0000f0 00 00 00 00 00 00 00 00 00 00 00 00 00 00 00 00
       0.0 0.0 0.0 0.0
000100 00 00 00 00 00 00 00 00 00 00 00 00 00 00 00 00
       0.0 0.0 0.0 0.0
000110 00 00 00 00 00 00 00 00 00 00 00 00 00 00 00 00
       0.0 0.0 0.0 0.0
000120 00 00 00 00 00 00 00 00 00 00 00 00 00 00 00 00
       0.0 0.0 0.0 0.0
000130 00 00 00 00 00 00 00 00 00 00 00 00 00 00 00 00
       0.0 0.0 0.0 0.0
000140 00 00 00 00 00 00 00 00 00 00 00 00 00 00 00 00
       0.0 0.0 0.0 0.0
000150 00 00 00 00 00 00 00 00 00 00 00 00 00 00 00 00
       0.0 0.0 0.0 0.0
000160 00 00 00 00 00 00 00 00 00 00 00 00 00 00 00 00
       0.0 0.0 0.0 0.0
000170 00 00 00 00 00 00 00 00 00 00 00 00 00 00 00 00
       0.0 0.0 0.0 0.0
000180 9d e0 e5 3d ad 6f 06 3e be 5b 26 be 27 08 8c 3e
       0.11224482 0.13128538 -0.16245934 0.2734997
000190 06 51 01 3e ba 5f 57 bc 3f ff 1b 3e aa c7 6c 3e
       0.12628564 -0.013145382 0.15234087 0.23123041
0001a0 cc d0 e0 3d 38 60 d1 be 4e b7 44 3e 56 ee 8c bd
       0.10977325 -0.40893722 0.1921055 -0.068813965
0001b0 8c ec 9a 3d 37 0c 39 3e 98 5e b2 bd 3c a3 0b bd
       0.07564649 0.18071066 -0.087094486 -0.03409122
0001c0 b5 59 ac 3d 2e 10 46 3e 41 2d 98 3e ed 85 ef 3e
       0.08415548 0.1934211 0.29722026 0.46781865
0001d0 ed 8d 70 3d b3 a5 74 3c 54 c4 08 3c 9f 75 45 3d
       0.0587291 0.014932084 0.0083475895 0.048207875
0001e0 5c e5 8a 3f 58 98 68 3f 68 54 67 3f 19 43 87 3f
       1.0851245 0.9085746 0.9036317 1.0567352
0001f0 1c 6c 7e 3f 85 a0 83 3f 45 a2 50 3f e9 52 8a 3f
       0.9938371 1.0283362 0.81497604 1.0806552
000200 f3 81 87 3f 94 9d 53 3f d9 40 8e 3f d3 42 97 3f
       1.0586532 0.8266232 1.111354 1.1817268
000210 8d e6 5e be 53 41 45 be 43 3c 8c bd 90 f3 85 be
       -0.21767636 -0.192632 -0.068474315 -0.26162386
000220 16 13 27 be ae 34 02 be 24 ba 56 3e 1b 4b 1d 3e
       -0.16315874 -0.12715408 0.20969445 0.15360682
000230 4e 9e 75 3e 7e 0e 5a bd 06 7f bf 3c bb 8d 9d 3d
       0.2398617 -0.053236477 0.023376 0.076930486
000240 00 00 00 00 00 00 00 00 00 00 00 00 00 00 00 00
       0.0 0.0 0.0 0.0
000250 00 00 00 00 00 00 00 00 00 00 00 00 00 00 00 00
       0.0 0.0 0.0 0.0
000260 00 00 00 00 00 00 00 00 00 00 00 00 00 00 00 00
       0.0 0.0 0.0 0.0
000270 00 00 00 00 00 00 00 00 00 00 00 00 00 00 00 00
       0.0 0.0 0.0 0.0
000280 00 00 00 00 00 00 00 00 00 00 00 00 00 00 00 00
       0.0 0.0 0.0 0.0
000290 00 00 00 00 00 00 00 00 00 00 00 00 00 00 00 00
       0.0 0.0 0.0 0.0
0002a0 00 00 00 00 00 00 00 00 00 00 00 00 00 00 00 00
       0.0 0.0 0.0 0.0
0002b0 00 00 00 00 00 00 00 00 00 00 00 00 00 00 00 00
       0.0 0.0 0.0 0.0
0002c0 00 00 00 00 00 00 00 00 00 00 00 00 00 00 00 00
       0.0 0.0 0.0 0.0
0002d0 00 00 00 00 00 00 00 00 00 00 00 00 00 00 00 00
       0.0 0.0 0.0 0.0
0002e0 00 00 00 00 00 00 00 00 00 00 00 00 00 00 00 00
       0.0 0.0 0.0 0.0
0002f0 00 00 00 00 00 00 00 00 00 00 00 00 00 00 00 00
       0.0 0.0 0.0 0.0
